data/checkpoint.critic1.pth (torch_old, 566704 bytes, 5 tensors)

fcs1.weight f4 [400, 48]
0.22063431 -0.13954267 -0.08571974 -0.09367609 -0.27656338 -0.24992125 -0.028283676 -0.11445165
0.09260607 -0.10280008 -0.04827451 -0.07261664 -0.23628956 -0.7673173 0.009306825 -0.11061357
0.016079048 -0.12214806 -0.016622141 -0.10663377 -0.17151104 -1.006806 -0.06650063 -0.18938188
-0.15571648 0.16457453 -0.03792372 0.31211784 0.2627032 -0.32623324 -0.077095255 0.31701097
-0.074579604 0.2650397 0.031983037 0.04885202 0.2662435 -0.7414116 0.031708453 0.026000727
-0.031962723 0.14234099 -0.028686821 -0.08406943 0.19902898 -0.995308 -0.019919137 -0.027902575
-0.16084893 -0.04274399 0.03991456 -0.0114651425 0.16291943 -0.2849342 -0.017066682 0.061223824
-0.0048684683 -0.017750615 0.0059519475 0.06472495 0.02967726 -0.7672978 0.008797384 0.061260708
0.058029104 -0.0411836 -0.008709644 0.006283154 -0.6656482 -0.15638644 -0.012534359 -0.0032323035
-0.20230177 0.17303807 -0.0041384115 0.42382312 -0.14386238 -0.30645645 0.008281151 0.4410963
-0.23281024 0.8019451 0.026800241 0.2672167 -0.016875694 -0.72199917 -0.023825118 0.19214787
-0.20471735 0.7012419 0.023818549 -0.7210996 0.62298155 -0.13109381 0.011857437 -0.7866267
0.06399874 0.11287957 0.007997543 0.13583864 -0.052551664 0.0683243 -0.0058859875 0.17582637
0.02982703 0.12360012 -0.00035968944 0.06539076 0.011329741 -0.36159188 0.016110223 0.044239275
-0.09916056 -0.015572151 0.042788964 -0.019102806 0.0647646 -1.565522 -0.010106883 -0.031188006
-0.15468922 0.9336338 -0.031033713 -0.050181136 0.04074003 0.16628535 0.00876135 0.005926383
-0.17974274 0.8598357 0.026668072 -0.32444397 0.048947845 -0.42334172 0.023684453 -0.32184318
-0.20877606 0.8627669 -0.04181898 -0.088045016 -0.1302504 -1.5289004 -0.05424554 -0.072031185
-0.10368536 0.2939154 0.0003771773 0.12335242 -0.16975617 -0.6499242 -0.017736973 0.18067609
-0.10141227 0.21556768 0.022831513 -0.10229098 -0.25992125 -1.0357786 -0.027974566 -0.10706624
-0.05671514 0.013736716 -0.12991786 -0.43729866 -0.28768453 -0.9204518 -0.106695876 -0.42699298
-0.049694143 -0.29483834 -0.04184558 0.32888323 0.1600836 -0.68627316 -0.00087876094 0.32039282
0.08486823 -0.10827809 0.05720568 0.39653453 0.17488255 -1.0105524 0.01660448 0.37940133
0.030299269 -0.058187596 -0.07184832 0.26542604 0.24199852 -0.947085 -0.09073463 0.2639072
0.09489491 -0.29080245 0.05012666 0.16843873 0.052355338 -0.32963076 -0.02449923 0.21605659
0.20660025 -0.14876038 -0.0280127 -0.040663864 0.107864656 -0.3773124 -0.018031072 0.034463193
0.25825793 -0.22416958 0.03234434 -0.11709948 -0.0625524 0.66872203 0.002212173 -0.10996558
0.08738162 -0.071837395 0.028541557 0.12200729 -0.060153864 -0.35512054 -0.030959366 0.16265248
0.19100331 0.36012736 0.042433225 0.065884404 -0.1422939 -0.3853214 0.0021210408 0.00023994624
0.25060585 0.10793506 -0.0059937127 -0.87865376 0.06815693 0.5881052 0.041358788 -0.86625284
0.053062562 -0.15565431 0.04176331 -0.24037653 -0.004231377 -0.29568338 0.027876986 -0.3245635
0.09656721 -0.14660065 -0.046033863 0.051527776 -0.0721767 -0.6986584 -0.042255443 0.0024542892
00000000: f6ed 613e 46e4 0ebe d58d afbd 40d9 bfbd
00000010: b799 8dbe 5beb 7fbe 2bb3 e7bc a065 eabd
00000020: 40a8 bd3d d988 d2bd 7ebb 45bd 08b8 94bd
00000030: e4f5 71be e86e 44bf a77b 183c 5e89 e2bd
00000040: 35b8 833c c328 fabd 282b 88bc ce62 dabd
00000050: 97a0 2fbe 05df 80bf 7b31 88bd 53ed 41be
00000060: 2474 1fbe 3a86 283e e755 1bbd e9cd 9f3e
00000070: 0981 863e 0b08 a7be 1ee4 9dbd 434f a23e
00000080: 31bd 98bd 49b3 873e a500 033d 0e19 483d
00000090: 1151 883e 27cd 3dbf b9e0 013d 7aff d43c
000000a0: 58eb 02bd d6c1 113e a000 ebbc 982c acbd
000000b0: 41ce 4b3e 81cc 7ebf 752d a3bc f193 e4bc
000000c0: 95b5 24be 5214 2fbd 737d 233d 4bd8 3bbc
000000d0: 5ad4 263e e5e2 91be 6dcf 8bbc d5c5 7a3d
000000e0: ac87 9fbb bd69 91bc 8e08 c33b 848e 843d
000000f0: ba1d f33c a16d 44bf e722 103c 82ec 7a3d
00000100: edaf 6d3d 22b0 28bd e5b2 0ebc eae2 cd3b
00000110: ec67 2abf c423 20be e95c 4dbc 0ed5 53bb
00000120: 3228 4fbe e430 313e 839b 87bb 58ff d83e
00000130: a950 13be dce7 9cbe aaad 073c 60d7 e13e
00000140: cf65 6ebe 464c 4d3f 2e8c db3c a1d0 883e
00000150: e53e 8abc f0d4 38bf e52c c3bc 69c2 443e
00000160: 6da1 51be 9784 333f 1e1f c33c fc99 38bf
00000170: b87b 1f3f 753d 06be b245 423c 5e60 49bf
00000180: c511 833d 672d e73d 2008 033c 4919 0b3e
00000190: 6a40 57bd 9ced 8b3d 3edf c0bb d40b 343e
000001a0: d157 f43c 0f22 fd3d b394 bcb9 97eb 853d
000001b0: 61a0 393c 9222 b9be 96f9 833c 3e34 353d
000001c0: b114 cbbd 5622 7fbc 7b43 2f3d 7d7d 9cbc
000001d0: 4da3 843d 0663 c8bf 5797 25bc fd7d ffbc
000001e0: da66 1ebe a002 6f3f 6a3a febc bc8a 4dbd
000001f0: 05df 263d b546 2a3e c48b 0f3c 1b32 c23b
00000200: 7b0e 38be 311e 5c3f 0077 da3c 851d a6be
00000210: 897d 483d 3fc0 d8be e605 c23c a1c8 a4be
00000220: 64c9 55be 4bde 5c3f 614a 2bbd f250 b4bd
00000230: 5c60 05be 02b3 c3bf 9230 5ebd 1685 93bd
00000240: fd58 d4bd 147c 963e e1bf c539 32a0 fc3d
00000250: 90d4 2dbe 6f61 26bf 214d 91bc 2703 393e
00000260: 3cb1 cfbd c6bd 5c3e 2709 bb3c ef7d d1bd
00000270: 6614 85be 6594 84bf eb2a e5bc 8b45 dbbd
00000280: 224e 68bd f60f 613c 3009 05be 9ce5 dfbe
00000290: 634b 93be bba2 6bbf 5e83 dabd d39e dabe
000002a0: 168c 4bbd 0df5 96be 4566 2bbd 6263 a83e
000002b0: f5ec 233e 99af 2fbf a65c 66ba 870a a43e
000002c0: 65cf ad3d e7c0 ddbd 8150 6a3d 9306 cb3e
000002d0: 6914 333e c859 81bf 1e06 883c e440 c23e
000002e0: 2c36 f83c 1e56 6ebd 3625 93bd ece5 873e
000002f0: 76ce 773e 2a74 72bf 14d3 b9bd d81e 873e
00000300: 4358 c23d 0fe4 94be 9d51 4d3d 347b 2c3e
00000310: 8d72 563d 5dc5 a8be 9cb2 c8bc f03d 5d3e
00000320: 048f 533e a454 18be e47a e5bc 278f 26bd
00000330: 25e8 dc3d 172f c1be e6b5 93bc 4729 0d3d
00000340: 623a 843e b68c 65be 807b 043d dad1 efbd
00000350: 791b 80bd 5e31 2b3f 1bfa 103b a235 e1bd
00000360: 23f5 b23d 7c1f 93bd fccf e93c f5de f93d
00000370: e663 76bd 5cd2 b5be 7f9e fdbc 5f8e 263e
00000380: 5f96 433e 9d62 b83e 76ce 2d3d 67ee 863d
00000390: 7eb5 11be d948 c5be 2901 0b3b 149a 7b39
000003a0: 694f 803e 0f0d dd3d e866 c4bb 74ef 60bf
000003b0: dc95 8b3d 108e 163f d567 293d bfc2 5dbf
000003c0: 2158 593d d863 1fbe 0110 2b3d 4425 76be
000003d0: 5da7 8abb d063 97be 475e e43c 302d a6be
000003e0: 08c5 c53d 7b1e 16be 018e 3cbd ca0e 533d
000003f0: 61d1 93bd 47db 32bf 0b14 2dbd 24d8 203b

fcs1.bias f4 [400]
-0.28281564 -0.30317983 0.7486585 -0.49072465 -0.30352136 0.0428211 0.7695344 -0.37287173
-0.83188874 -0.4956731 -0.33331594 0.0123901935 -0.6073187 -0.38321796 0.189698 -0.12548663
-0.0067828842 0.70667714 -0.6294914 0.25751483 -0.286758 -0.07992766 -0.5968984 -0.47040093
-0.13531922 -0.30976722 -0.3341924 -0.28429636 -0.25766844 -0.034783978 0.33456296 -0.7247376
-0.5808153 -0.44566494 -0.5204243 -0.52362454 -0.19350863 -0.7866187 -0.30226618 -0.65692854
-0.121012464 -0.5421864 -0.24879971 0.0018694481 -0.3874758 -0.31853196 -0.017959015 -0.5541916
-0.48193803 -0.36235002 -0.53447956 -0.28321305 -0.48153645 -0.16596621 -0.39333457 -0.6783905
-0.35708094 -0.2859587 -0.44819078 -0.30078298 -0.6542367 -0.2769025 -0.55677015 -0.42330018
-0.52488184 -0.5062156 -0.118886605 -0.33670515 -0.2076941 0.16278638 -0.37899742 -0.4193179
0.36391324 -0.28377485 -0.13919996 -0.36427552 -0.4802531 -0.460504 -0.56043756 -0.6796773
0.67366433 -0.336812 -0.5493283 -0.15111157 -0.21021625 -0.37815806 -0.28273323 -0.5935733
-0.34135458 -0.4527547 -0.2747348 -0.53988737 -0.33773738 -0.20413803 -0.8525073 -0.07389688
-0.3785734 -0.58204544 -0.1548484 -0.25983495 -0.26591912 -0.38507023 -0.14061975 -0.27769935
-0.40981674 -0.5383793 0.016713463 -0.2825353 -0.15967198 -0.1997214 -0.24061447 0.4778442
-0.31781584 -0.40279505 0.1278962 -0.25990358 -0.687419 -0.1757097 -0.40202427 -0.41311315
-0.30335405 -0.50017756 -0.09496377 -0.408276 -0.486963 -0.28204796 -0.43148696 -0.39680618
-0.09338662 -0.3168875 -0.73382235 -0.36916068 -0.14421609 -0.6251697 -0.30747753 -0.42469418
0.26805124 -0.21362224 0.040160913 -0.24337792 -0.32455882 -0.4796401 -0.14694779 -0.33579543
-0.23598339 -0.00291327 -0.2851657 -0.061523598 -0.19370233 -0.21881309 -0.65812886 -0.41809046
-0.20184296 -0.3556928 0.26805195 -0.7101801 -0.13494746 -0.326256 0.1905317 -0.24370988
-0.28365892 -0.3799745 -0.21826579 -0.2276116 -0.6317158 -0.5292415 -0.5652892 -0.18311033
-0.4016183 -0.1424498 0.10792477 -0.30830854 -0.067723684 -0.1515248 -0.59113497 -0.4061554
-0.5798729 -0.69518065 -0.49821973 0.10125763 0.47926795 -0.31787634 -0.5156213 0.2485202
-0.18797462 -0.26732615 -0.57204074 -0.09272787 -0.32284263 -0.33039725 -0.024216233 -0.33757037
-0.2443944 -0.3631024 -0.45372713 -0.102780305 0.03932566 -0.23222011 0.057924774 -0.49030265
-0.42394722 -0.3098724 -0.23039682 -0.5965694 0.17118327 -0.7838103 0.043684203 -0.13218904
-0.2923273 -0.24971469 0.06905885 -0.41895503 -0.2718144 -0.23897585 -0.1237747 -0.41785836
-0.3360257 0.20626938 -0.16478492 -0.4041659 -0.7032774 -0.091951326 -0.66399044 -0.34497574
-0.083692275 -0.32135212 -0.18975803 -0.43274185 0.21581922 -0.34704435 -0.22670308 -0.35489848
-0.29291958 -0.044647057 0.31645054 -0.59825546 -0.16231048 -0.34974733 -0.7463663 -0.4135313
0.5327767 0.2367137 -0.420764 -0.6512297 -0.31594816 0.011070081 -0.13546291 0.09336306
-0.04152976 -0.28703433 -0.60747856 -0.50397944 -0.022911953 -0.13752475 -0.6092265 0.2164797
00000000: 36cd 90be 633a 9bbe 15a8 3f3f 4340 fbbe
00000010: 2767 9bbe 2e65 2f3d 3500 453f 0be9 bebe
00000020: a9f6 54bf ddc8 fdbe 63a8 aabe 3d00 4b3c
00000030: 3d79 1bbf 2535 c4be 3140 423e 917f 00be
00000040: f542 debb cbe8 343f 5926 21bf fcd8 833e
00000050: f2d1 92be 1db1 a3bd 55ce 18bf 64d8 f0be
00000060: 1f91 0abe cf99 9ebe 441b abbe 4b8f 91be
00000070: 1eed 83be a579 0ebd d64b ab3e 6788 39bf
00000080: 50b0 14bf 322e e4be 873a 05bf 420c 06bf
00000090: 2027 46be d85f 49bf a2c2 9abe 782c 28bf
000000a0: 62d5 f7bd bacc 0abf 5ac5 7ebe 4508 f53a
000000b0: 3a63 c6be 9f16 a3be c91e 93bc 80df 0dbf
000000c0: 95c0 f6be f185 b9be a7d3 08bf 4d01 91be
000000d0: f28b f6be 0cf3 29be 2663 c9be 00ab 2dbf
000000e0: 50d3 b6be 2e69 92be 4379 e5be 3a00 9abe
000000f0: 0e7c 27bf 2ac6 8dbe 7d88 0ebf cdba d8be
00000100: a85e 06bf 5897 01bf d27a f3bd 9e64 acbe
00000110: c3ad 54be 79b1 263e f30b c2be d6b0 d6be
00000120: d652 ba3e f04a 91be 6f8a 0ebe 5282 babe
00000130: bce3 f5be 2ec7 ebbe d678 0fbf 55ff 2dbf
00000140: 4475 2c3f 9f72 acbe c8a0 0cbf febc 1abe
00000150: ee42 57be ef9d c1be 69c2 90be 6bf4 17bf
00000160: 07c6 aebe 77cf e7be 0aaa 8cbe 0f36 0abf
00000170: eaeb acbe 8f09 51be eb3d 5abf 3f57 97bd
00000180: 5fd4 c1be ee00 15bf 9490 1ebe 1609 85be
00000190: 8d26 88be ed27 c5be a0fe 0fbe 9c2e 8ebe
000001a0: 80d3 d1be 3ad3 09bf acea 883c 78a8 90be
000001b0: 0d81 23be c483 4cbe a463 76be ffa7 f43e
000001c0: c2b8 a2be 273b cebe 39f7 023e 1512 85be
000001d0: b1fa 2fbf 3eed 33be 20d6 cdbe 9183 d3be
000001e0: 3951 9bbe a30b 00bf 5d7c c2bd 8d09 d1be
000001f0: 3753 f9be 9768 90be dceb dcbe 2e2a cbbe
00000200: 7c41 bfbd 143f a2be c8db 3bbf a102 bdbe
00000210: 62ad 13be 1f0b 20bf b26d 9dbe 8471 d9be
00000220: 033e 893e cabf 5abe c57f 243d 1038 79be
00000230: 932c a6be 6393 f5be 7b79 16be 61ed abbe
00000240: a1a5 71be 8fec 3ebb 3d01 92be 2b00 7cbd
00000250: e759 46be 8a10 60be 227b 28bf f40f d6be
00000260: ecaf 4ebe 5e1d b6be 1b3e 893e 5dce 35bf
00000270: ab2f 0abe 070b a7be be1a 433e 158f 79be
00000280: be3b 91be 058c c2be 1181 5fbe 0413 69be
00000290: 20b8 21bf 5f7c 07bf cbb6 10bf 4681 3bbe
000002a0: eaa0 cdbe 5cde 11be a907 dd3d 9eda 9dbe
000002b0: b7b2 8abd 5129 1bbe 9f54 17bf 9af3 cfbe
000002c0: 8d72 14bf 5cf7 31bf a816 ffbe 2960 cf3d
000002d0: 9c62 f53e b0c0 a2be c2ff 03bf 147c 7e3e
000002e0: 6b7c 40be f9de 88be 4371 12bf 1ce8 bdbd
000002f0: a14b a5be d429 a9be 1f61 c6bc 06d6 acbe
00000300: 8742 7abe 8fe8 b9be ec4e e8be 7b7e d2bd
00000310: f113 213d 1ccb 6dbe 8742 6d3d f308 fbbe
00000320: 9c0f d9be 98a7 9ebe 25ed 6bbe c6b8 18bf
00000330: ab4a 2f3e cba7 48bf 35ee 323d 905c 07be
00000340: edab 95be 35b5 7fbe ba6e 8d3d 4681 d6be
00000350: 422b 8bbe 16b6 74be 977d fdbd 88f1 d5be
00000360: 900b acbe 4838 533e 61bd 28be d5ee cebe
00000370: fd09 34bf fa50 bcbd 47fb 29bf a9a0 b0be
00000380: db66 abbd 4488 a4be ee4f 42be 5790 ddbe
00000390: b7ff 5c3e ccaf b1be da24 68be 41b5 b5be
000003a0: 8ef9 95be d5df 36bd ce05 a23e 4527 19bf
000003b0: b834 26be 1512 b3be dd11 3fbf 60ba d3be
000003c0: 0e64 083f 1465 723e 616e d7be fdb6 26bf
000003d0: f5c3 a1be 495f 353c cab6 0abe 2235 bf3d
000003e0: 1c1b 2abd 2af6 92be b783 1bbf cc04 01bf
000003f0: d9b1 bbbc 4ad3 0cbe 45f6 1bbf dbac 5d3e

fc2.weight f4 [300, 404]
0.03679356 -0.06773461 -0.04696706 0.012978943 -0.039714023 0.015481873 0.0036992582 -0.05583224
-0.0036672808 0.022453818 -0.045221455 -0.053022135 -0.0017211321 -0.08796502 -0.033815723 0.023841064
-0.11410155 0.0023609467 -0.043735486 0.029066656 -0.0783481 -0.0010680531 0.028345855 -0.06847946
-0.025810897 -0.055187967 0.02527127 -0.059012797 -0.059267208 -0.05518176 -0.0029296752 0.038811646
-0.050422125 -0.011479546 -0.0009253779 -0.07401024 -0.108696505 0.003447861 0.047606908 -0.02804066
-0.021551186 0.018607525 0.050150987 0.001979105 0.023376046 -0.009637911 -0.003007468 0.0011933084
-0.09885513 -0.011756968 -0.01171244 -0.024278121 -0.070266955 -0.061298944 0.04542029 0.0013710314
0.029039279 -0.0029740476 -0.051088233 0.00591775 -0.072474875 0.012533831 0.044839673 -0.07755369
-0.026209364 -0.034168694 -0.067526184 -0.05087691 -0.08854734 -0.031475067 0.034502238 -0.027839463
-0.08757911 -0.037565254 -0.047615983 -0.04230681 -0.014629079 -0.1327288 -0.021323087 -0.00027874202
-0.09300488 -0.08702919 -0.04589486 -0.017420927 -0.057453845 -0.032333784 -0.1557772 -0.008433521
-0.046340417 -0.035015814 -0.06029604 -0.04498125 0.009851321 -0.016479198 -0.0009420069 -0.0016895916
-0.011908598 -0.042987946 0.040480193 -0.0040391027 -0.0100832945 0.010127523 -0.018176218 -0.010850499
-0.024505083 -0.057180002 -0.037712526 -0.07148548 -0.0689252 -0.04195872 -0.024161467 0.029169446
-0.083264634 0.013299527 0.0073641343 -0.019949507 -0.018978424 -0.0017803251 -0.05486153 0.017098505
0.013804875 -0.013019043 -0.02725072 0.029771313 -0.052610092 -0.07717503 0.03693136 -0.04475049
0.01561715 -0.03627804 0.014271263 -0.0021116543 0.0065492615 0.009919777 -0.04482364 -0.107779145
-0.11211972 -0.01090868 0.010684775 -0.055349056 0.020468824 -0.05631424 -0.047685057 -0.010067962
0.025275141 -0.031465195 -0.016752249 -0.051725194 0.0055311797 -0.14500982 -0.11072054 -0.036400948
-0.0542883 -0.008262614 -0.15694101 -0.025790008 -0.08893677 0.027955983 -0.06441875 -0.054931782
-0.045718372 0.033348914 0.033770703 -0.018810198 0.0032362107 0.012796275 0.043655068 -0.1061996
-0.033596996 -0.01947929 -0.008254793 0.01117569 0.02317322 0.00173349 -0.029334549 -0.0058069355
0.031850025 -0.049349677 -0.07184619 0.06680203 0.08130575 -0.0026417142 -0.06839894 -0.034863137
-0.0828822 -0.046527307 0.020183336 0.021298215 0.0138471555 0.013714193 -0.115912616 -0.11039388
-0.02623347 -0.12464998 0.002449784 -0.053671442 0.018463017 0.038729202 -0.0434426 -0.14892454
-0.015684847 -0.04994848 -0.030691162 0.05253423 -0.06459988 0.033391733 -0.031407174 -0.047965743
-0.022268679 0.0027654273 0.060941108 0.024403263 -0.10041947 -0.009432033 -0.0930078 0.00016212638
-0.056061152 -0.013249679 -0.13544653 -0.026896963 -0.08535083 -0.080301315 0.026164992 -0.032344867
-0.05495512 0.032562185 0.05426152 0.029261198 -0.12993409 -0.0064450726 0.026717048 -0.023738435
0.03902594 -0.09090792 -0.07639073 -0.020662386 -0.06368099 -0.08041858 -0.009817127 -0.0015893785
-0.11702087 0.018225767 0.027665982 0.02163628 -0.05566345 -0.011879011 -0.06895757 -0.003435784
0.027641663 -0.057838455 -0.0103361765 -0.059008982 0.015998013 -0.07853253 -0.06500673 -0.091051675
00000000: d8b4 163d 71b8 8abd 8860 40bd a2a5 543c
00000010: 2cab 22bd afa7 7d3c 416f 723b 59b0 64bd
00000020: c356 70bb 12f1 b73c 223a 39bd bd2d 59bd
00000030: 9c97 e1ba 0127 b4bd 5b82 0abd 564e c33c
00000040: 13ae e9bd 1dba 1a3b fb23 33bd 321d ee3c
00000050: f874 a0bd eafd 8bba 9135 e83c f63e 8cbd
00000060: 6071 d3bc c70c 62bd b205 cf3c 67b7 71bd
00000070: 2cc2 72bd 4506 62bd cbff 3fbb f6f8 1e3d
00000080: 6e87 4ebd b514 3cbc 0f95 72ba ae92 97bd
00000090: 469c debd 82f5 613b 76ff 423d 87b5 e5bc
000000a0: 1d8c b0bc cf6e 983c 1f6b 4d3d dfb3 013b
000000b0: 1f7f bf3c 54e8 1dbc f118 45bb c968 9c3a
000000c0: 8f74 cabd 4ca0 40bc 89e5 3fbc e9e2 c6bc
000000d0: 1fe8 8fbd 9a14 7bbd a00a 3a3d 2eb4 b33a
000000e0: c8e3 ed3c 3de8 42bb e541 51bd afe9 c13b
000000f0: b56d 94bd b35a 4d3c cea9 373d 78d4 9ebd
00000100: 05b5 d6bc 79f4 0bbd 2b4b 8abd 4f64 50bd
00000110: 4f58 b5bd 00ec 00bd 3852 0d3d 960f e4bc
00000120: ad5c b3bd 06de 19bd fa08 43bd e849 2dbd
00000130: ceae 6fbc 0fea 07be c1ad aebc 1f24 92b9
00000140: 5879 bebd 5c3c b2bd 40fc 3bbd 55b6 8ebc
00000150: b954 6bbd 6e70 04bd 0f84 1fbe c02c 0abc
00000160: 73cf 3dbd be6c 0fbd fbf8 76bd 423e 38bd
00000170: 6f67 213c 62ff 86bc 03f1 76ba 4975 ddba
00000180: 481c 43bc 2114 30bd 8fce 253d 735a 84bb
00000190: 6734 25bc e9ed 253c 4be6 94bc 4bc6 31bc
000001a0: e2be c8bc 9435 6abd 7378 1abd fb66 92bd
000001b0: a828 8dbd e8dc 2bbd 45ee c5bc c3f4 ee3c
000001c0: a686 aabd 42e6 593c d64e f13b 266d a3bc
000001d0: a478 9bbc cc59 e9ba 7cb6 60bd 2a12 8c3c
000001e0: d82d 623c d34d 55bc e73c dfbc f8e2 f33c
000001f0: ae7d 57bd f10d 9ebd 5645 173d 4a4c 37bd
00000200: 13df 7f3c 4898 14bd 04d2 693c ae63 0abb
00000210: 309b d63b 8f86 223c fe98 37bd 50bb dcbd
00000220: 069f e5bd 52ba 32bc 320f 2f3c b1b5 62bd
00000230: 3cae a73c c3a9 66bd 6851 43bd 18f4 24bc
00000240: d00d cf3c a6e1 00bd 033c 89bc ccdd 53bd
00000250: e63e b53b 747d 14be 73c1 e2bd 2919 15bd
00000260: 695d 5ebd ea5f 07bc 25b5 20be 9145 d3bc
00000270: 7b24 b6bd f203 e53c faed 83bd 2600 61bd
00000280: 3043 3bbd df98 083d 2653 0a3d d817 9abc
00000290: 9b16 543b 78a7 513c a8cf 323d 2d7f d9bd
000002a0: 019d 09bd 0893 9fbc 1c3f 07bc 3e1a 373c
000002b0: c4d5 bd3c 4636 e33a 024f f0bc 1b48 bebb
000002c0: 2c75 023d e322 4abd 1824 93bd 81cf 883d
000002d0: a183 a63d 9c20 2dbb be14 8cbd a6cc 0ebd
000002e0: 25be a9bd 6b93 3ebd 8657 a53c 9879 ae3c
000002f0: 2edf 623c 7fb1 603c 9863 edbd 3016 e2bd
00000300: 93e7 d6bc 7d48 ffbd 8e8c 203b 96d6 5bbd
00000310: c13f 973c 83a2 1e3d def0 31bd ad7f 18be
00000320: 827d 80bc c796 4cbd 086c fbbc 222e 573d
00000330: f14c 84bd c5c5 083d cfa4 00bd ba77 44bd
00000340: ce6c b6bc 2c3c 353b 629d 793d 5ae9 c73c
00000350: b9a8 cdbd d088 1abc e07a bebd 7800 2a39
00000360: 61a0 65bd 2e15 59bc 7fb2 0abe 0557 dcbc
00000370: 6acc aebd 0475 a4bd f757 d63c 0d7c 04bd
00000380: 9f18 61bd ed5f 053d 5441 5e3d 2eb5 ef3c
00000390: 710d 05be 3031 d3bb b6dd da3c 1b77 c2bc
000003a0: aad9 1f3d ee2d babd be72 9cbd 2a44 a9bc
000003b0: 2e6b 82bd 7fb2 a4bd 04d8 20bc b152 d0ba
000003c0: a3a8 efbd 344e 953c c5a3 e23c 913e b13c
000003d0: 5cff 63bd 2fa0 42bc a039 8dbd e42a 61bb
000003e0: c570 e23c 04e8 6cbd 1159 29bc 67b3 71bd
000003f0: 440e 833c aad5 a0bd 4022 85bd 4d79 babd

fc2.bias f4 [300]
-0.10691844 -0.13478705 -0.122362524 -0.16195005 -0.09913532 -0.2808669 -0.09469686 -0.044585068
-0.10292946 -0.087512985 -0.09946852 -0.107185945 -0.22687387 -0.10311712 -0.12341721 -0.017506035
0.50702566 -0.12686369 -0.079506576 -0.15434065 -0.13705963 -0.4811984 0.0730113 0.058259152
-0.10526421 -0.11300015 -0.2091324 -0.1527242 -0.15155993 -0.053920235 -0.062547594 -0.07632112
-0.09728497 -0.20169748 -0.13900898 -0.15971923 -0.12714559 -0.12645124 -0.0929301 -0.66208214
-0.06793229 -0.16598475 -0.15244697 -0.057659764 -0.18407579 -0.092426546 -0.12065947 -0.22199671
-0.11310045 -0.097971536 0.01978716 -0.06514788 -0.15576428 -0.12264993 -0.11274437 -0.0025840194
-0.08947413 -0.17403409 -0.019353481 -0.10968915 -0.18795982 -0.08772107 0.012910773 -0.15259288
-0.08672041 0.6398163 -0.04014582 -0.09597148 -0.09763638 -0.055064432 -0.096757606 -0.12606056
-0.10119365 -0.11063821 -0.3851548 -0.09278233 0.11855969 -0.09358907 -0.09304794 -0.17423327
-0.049540613 -0.11392213 -0.3245718 -0.09215274 -0.17309327 -0.01866849 -0.012350021 -0.08623193
-0.16559446 -0.16759977 -0.09968932 -0.07981622 -0.13997974 -0.11383671 -0.12508686 -0.1555731
-0.10055697 -0.10828763 -0.19896163 -0.08587842 -0.081408516 -0.17737891 -0.12863244 -0.14768933
-0.17192402 0.32358995 -0.114993274 -0.113702975 -0.13755254 -0.120706946 -0.10771551 -0.04437986
-0.06572617 -0.13739716 -0.12756054 -0.108180195 -0.10780394 -0.10335285 -0.07853042 -0.16350916
-0.14725992 -0.105976015 -0.2524382 -0.4580161 -0.1067921 -0.11185712 -0.039928775 -0.117211014
-0.08668117 -0.4672211 -0.050646603 -0.06580653 -0.11006929 -0.13009474 -0.1120661 -0.086893305
-0.07853569 -0.11031388 -0.08662042 -0.30577788 -0.39144817 -0.044013083 0.23422182 -0.120205976
-0.2832137 -0.09650466 -0.0612931 -0.0934137 -0.083005436 -0.18273151 -0.26942396 -0.10510643
-0.10015663 -0.09828379 -0.21522178 -0.16069299 -0.0991847 -0.13858084 -0.094600394 -0.16360544
-0.060116637 -0.09118495 0.22782828 0.02848797 -0.112469494 -0.059046388 -0.17427675 -0.021066835
-0.059736196 -0.049241494 -0.11642717 -0.053088777 -0.13532306 -0.10505696 -0.27846795 -0.10241033
-0.11622914 -0.3620538 -0.16894905 -0.16623259 -0.0842034 -0.1634683 -0.12968375 -0.057317406
-0.050497927 -0.12168352 -0.022270422 -0.085628 0.40221056 -0.039662298 -0.08331523 -0.1549919
-0.08749433 -0.22795075 -0.081182785 -0.14369416 -0.071657404 -0.12877901 0.10078081 -0.08217509
-0.14564557 -0.13770463 -0.06525571 -0.046310976 -0.06702601 0.31538022 -0.13741013 -0.07183086
-0.13900763 -0.08387106 0.7715535 -0.13617194 -0.09703789 -0.048549786 -0.16573969 -0.06280597
-0.062459417 -0.033739086 -0.1289231 -0.2277394 -0.13498724 -0.0677 -0.07462028 -0.11360462
-0.14936121 -0.117993824 -0.05166917 -0.1668137 -0.07441196 -0.11970202 -0.12718098 -0.09463909
-0.1724685 -0.08051715 -0.06253343 -0.100390635 -0.083059266 -0.051866863 -0.09662144 -0.14050731
-0.108080685 -0.085458316 -0.15162368 -0.4874544 -0.08377572 -0.38226366 -0.1694334 -0.07791029
-0.09725973 -0.13208318 0.07300443 0.29984343 -0.25978813 -0.020369668 -0.033645492 -0.09280581
00000000: 0ef8 dabd 9e05 0abe 3499 fabd 3cd6 25be
00000010: 7507 cbbd c9cd 8fbe 6df0 c1bd d59e 36bd
00000020: aecc d2bd 023a b3bd 27b6 cbbd 4e84 dbbd
00000030: a051 68be 122f d3bd 2ac2 fcbd d168 8fbc
00000040: 6fcc 013f 8ee8 01be 58d4 a2bd 7a0b 1ebe
00000050: 5c59 0cbe a35f f6be f386 953d 26a1 6e3d
00000060: c394 d7bd 9f6c e7bd ce26 56be bc63 1cbe
00000070: 8732 1bbe 77db 5cbd f418 80bd 3f4e 9cbd
00000080: 583d c7bd c989 4ebe 5f58 0ebe 708d 23be
00000090: 7432 02be 6f7c 01be 2352 bebd 377e 29bf
000000a0: 1620 8bbd e8f7 29be 0f1b 1cbe a52c 6cbd
000000b0: 5d7e 3cbe 214a bdbd 501c f7bd 1b53 63be
000000c0: 35a1 e7bd 4da5 c8bd af18 a23c 406c 85bd
000000d0: ac80 1fbe e32f fbbd 85e6 e6bd a758 29bb
000000e0: 363e b7bd fe35 32be 318b 9ebc b4a4 e0bd
000000f0: 8a78 40be 1ba7 b3bd b587 533c 4f41 1cbe
00000100: 789a b1bd 00cb 233f f16f 24bd b28c c4bd
00000110: 95f5 c7bd 3e8b 61bd da28 c6bd 0516 01be
00000120: 9e3e cfbd 4996 e2bd 0333 c5be aa04 bebd
00000130: 6ccf f23d a0ab bfbd eb8f bebd 356a 32be
00000140: 19eb 4abd 0150 e9bd 462e a6be 93ba bcbd
00000150: 5d3f 31be a9ee 98bc be57 4abc 5e9a b0bd
00000160: 9891 29be 469f 2bbe ea29 ccbd b076 a3bd
00000170: d956 0fbe 3923 e9bd c516 00be 8e4e 1fbe
00000180: d0f0 cdbd e8c5 ddbd 99bc 4bbe 06e1 afbd
00000190: 82b9 a6bd d1a2 35be 39b8 03be df3b 17be
000001a0: da0c 30be 95ad a53e 9881 ebbd 1bdd e8bd
000001b0: 93da 0cbe 3435 f7bd f399 dcbd a8c7 35bd
000001c0: 719b 86bd d7b1 0cbe 3b9f 02be 948d ddbd
000001d0: 50c8 dcbd a9aa d3bd 8fd4 a0bd f26e 27be
000001e0: 4ecb 16be f409 d9bd 943f 81be 1681 eabe
000001f0: d1b5 dabd 5915 e5bd 5b8c 23bd 540c f0bd
00000200: e685 b1bd 9b37 efbe d072 4fbd 93c5 86bd
00000210: 026c e1bd 8e37 05be e982 e5bd 1ef5 b1bd
00000220: 52d7 a0bd 3eec e1bd 0c66 b1bd eb8e 9cbe
00000230: e56b c8be 1047 34bd d8d7 6f3e 8d2e f6bd
00000240: 6301 91be 3ca4 c5bd 790e 7bbd af4f bfbd
00000250: c1fe a9bd f81d 3bbe f0f1 89be 0a42 d7bd
00000260: eb1e cdbd 0349 c9bd 1963 5cbe b48c 24be
00000270: 5921 cbbd 23e8 0dbe dabd c1bd 2f88 27be
00000280: dd3c 76bd 2dbf babd d14b 693e 9a5f e93c
00000290: 6856 e6bd a0da 71bd 9b75 32be 5b94 acbc
000002a0: f1ad 74bd 73b1 49bd 5e71 eebd 9e73 59bd
000002b0: 2192 0abe 1a28 d7bd 5a93 8ebe 82bc d1bd
000002c0: 8b09 eebd 1e5f b9be fb00 2dbe e038 2abe
000002d0: d572 acbd 3c64 27be d1cb 04be a8c5 6abd
000002e0: ead6 4ebd 3635 f9bd 7670 b6bc bc5d afbd
000002f0: 8bee cd3e ef74 22bd 2da1 aabd 32b6 1ebe
00000300: 3a30 b3bd ec6b 69be 2943 a6bd 9024 13be
00000310: 1ec1 92bd a5de 03be 2b66 ce3d 6a4b a8bd
00000320: 1d24 15be 7102 0dbe c9a4 85bd 94b0 3dbd
00000330: ef44 89bd 8479 a13e 3eb5 0cbe 0f1c 93bd
00000340: 0458 0ebe 97c4 abbd 8884 453f a870 0bbe
00000350: cdbb c6bd 24dc 46bd aab7 29be 6ba0 80bd
00000360: 72d5 7fbd ff31 0abd 6b04 04be 8434 69be
00000370: 183a 0abe 4ca6 8abd 84d2 98bd 8aa9 e8bd
00000380: 25f2 18be bfa6 f1bd 0da3 53bd 36d1 2abe
00000390: 4c65 98bd 5526 f5bd bb3b 02be 24d2 c1bd
000003a0: 959b 30be 2de6 a4bd 8711 80bd 9b99 cdbd
000003b0: fa1a aabd 5972 54bd 76e1 c5bd 26e1 0fbe
000003c0: 6859 ddbd c504 afbd 3d43 1bbe a093 f9be
000003d0: 9b92 abbd 10b8 c3be f37f 2dbe 6e8f 9fbd
000003e0: 1c30 c7bd d040 07be 5983 953d 1485 993e
000003f0: f302 85be 4ade a6bc dbcf 09bd f910 bebd

fc3.weight f4 [1, 300]
-0.0066371365 0.0068447045 0.0057085925 0.016103985 -0.009894905 0.0010028376 0.0095859 -0.018958166
0.012327698 0.028021416 -0.029712103 0.0097860135 0.0074632457 0.0133933965 0.007892065 0.021312067
0.008419925 -0.005456333 0.014537039 -0.005157806 0.017898785 -0.0062856544 0.025503622 0.013408053
-0.012475267 -0.031922158 -0.021363901 -0.003359596 -0.010329613 0.022914639 -0.005761716 -0.008460232
-0.0050854012 0.027397418 0.010046735 -0.023904892 0.0013027737 -0.0025025848 -0.010165016 -0.021530267
-0.0022788825 0.005845273 -0.028990556 -0.010538425 0.0052415966 0.0028474638 0.025273908 -0.009254889
-0.022983465 0.00312377 0.010085373 0.00040197017 0.007875606 -0.018854035 -0.0040725404 -0.009314935
0.030121025 0.04157882 -0.015531195 -0.02140941 0.0013667003 -0.004701924 0.024264136 -0.0010931976
0.024452774 0.008446784 -0.012862794 0.0024858338 0.025781533 0.027104994 -0.014469089 -0.015863871
-0.029006282 -0.0076207644 -0.010567576 -0.006551194 -0.0113084195 0.013025229 0.023509499 0.0069235787
-0.0059761484 0.0012146486 -0.018449651 0.0026227003 0.0131920315 0.0076079057 0.024570825 0.024624271
-0.017014934 0.018696062 0.013709361 0.024208143 -0.0052908007 -0.013891479 -0.014741192 -0.009274606
0.005418544 0.028538182 -0.045406245 0.0071455 -0.011327862 -0.027136575 0.0044110175 0.009874186
-0.026432674 -0.013998999 0.02592927 0.013274457 0.015591879 -0.027345905 0.0007186387 -0.0088273045
0.03237239 0.023182584 0.009821916 0.006632046 -0.014709308 -0.024366478 0.019059133 0.030611424
0.012953904 0.003771445 -0.018908588 -0.03622952 0.0018398784 -0.0026741289 0.0035456766 -0.02135904
0.0016474709 -0.050446205 0.021460088 -0.004218418 -0.0016473291 0.003019441 0.014469919 -0.010327498
0.006626866 -0.008511233 -0.012897736 0.0112130325 0.001273687 -0.002024323 -0.006970395 -0.01449559
-0.01430347 0.006345361 -0.012980585 -0.0077744205 -0.027624732 -0.025313577 -0.015059466 -0.0017247036
-0.016407384 0.014845065 0.019005599 0.004331417 -0.0066776653 0.010265608 0.015710747 0.021908714
-0.0029437426 0.004845729 -0.008214862 -0.011910665 0.013081092 0.012744763 0.014024465 0.01770434
-0.010069235 -0.018099064 -0.0025681013 -0.014954611 0.0112405885 -0.005171895 -0.00012130597 -0.0066079474
-0.015444019 -0.01835428 -0.0074602803 0.007521433 -0.01597356 -0.009646644 0.0130949505 0.01223981
-0.010247219 -0.013196241 0.0057043377 0.015385251 0.012272563 -0.025588596 0.022584843 -0.023294063
-0.028817778 0.0029344482 -0.024410633 -0.01687133 0.020636495 -0.009385648 0.012596382 0.005940187
0.028945554 0.017081803 0.014669123 -0.001830701 0.00032039545 0.014267124 0.011184851 0.022081982
0.005026257 -0.031225573 -0.006128347 -0.012485837 -0.0033649863 6.327932e-05 -0.03887375 -0.020265091
0.009843533 0.0030134874 0.0008902562 -0.0070410813 -0.00027103967 0.010256902 0.008102363 0.016633695
-0.025401764 -0.027997425 0.00022863602 0.02039789 -0.006099205 0.027763005 0.008563765 -0.023250245
0.0031879405 -0.014019009 0.028793398 -0.01046728 -0.0051267203 0.023505531 -0.028492399 -0.017044818
0.002188804 -0.019140283 0.0013227282 0.018267324 0.005144912 -0.021822527 0.015495229 -0.012933485
0.012485652 -0.01453932 -0.0027689624 0.0091109015 -0.003142879 -0.009072185 -0.0010332173 -0.0001400622
00000000: 567c d9bb 8b49 e03b 250f bb3b 81ec 833c
00000010: 3d1e 22bc a571 833a 2e0e 1d3c 284e 9bbc
00000020: 1dfa 493c 2b8d e53c cc66 f3bc 8455 203c
00000030: 3e8e f43b fa6f 5b3c b84d 013c a596 ae3c
00000040: baf3 093c 0acb b2bb c32c 6e3c d002 a9bb
00000050: 79a0 923c e4f7 cdbb f9ec d03c 73ad 5b3c
00000060: 1065 4cbc cfc0 02bd 5903 afbc ab2c 5cbb
00000070: 8a3d 29bc 7bb7 bb3c c7cc bcbb c99c 0abc
00000080: 70a3 a6bb 8d70 e03c 109b 243c 31d4 c3bc
00000090: d5c1 aa3a 6802 24bb 2b8b 26bc 3e60 b0bc
000000a0: 4e59 15bb b489 bf3b 9a7d edbc 5ca9 2cbc
000000b0: b3c1 ab3b 849c 3a3b 3a0b cf3c d1a1 17bc
000000c0: d247 bcbc 2ab8 4c3b 1f3d 253c 86bf d239
000000d0: b008 013c c773 9abc f272 85bb ab9d 18bc
000000e0: 5ec0 f63c 8e4e 2a3d 8e76 7ebc c962 afbc
000000f0: da22 b33a 9912 9abb 95c5 c63c a049 8fba
00000100: 2f51 c83c 6164 0a3c 78be 52bc 5fe9 223b
00000110: cb33 d33c 4b0b de3c c20f 6dbc f3f4 81bc
00000120: 959e edbc 9bb7 f9bb a023 2dbc 66ab d6bb
00000130: f346 39bc c567 553c fe96 c03c 30df e23b
00000140: 91d3 c3bb d834 9f3a b923 97bc 9ce1 2b3b
00000150: 6423 583c bd4b f93b c148 c93c d7b8 c93c
00000160: e762 8bbc 7c28 993c 3a9d 603c 2850 c63c
00000170: 745e adbb 1699 63bc 0a85 71bc 84f4 17bc
00000180: 0b8e b13b e8c8 e93c e6fb 39bd cc24 ea3b
00000190: 7f98 39bc 864d debc 4c8a 903b 56c7 213c
000001a0: 5689 d8bc 0f5c 65bc 9f69 d43c 1c7d 593c
000001b0: 1575 7f3c 8504 e0bc 0763 3c3a 66a0 10bc
000001c0: e998 043d 67e9 bd3c 1aec 203c a251 d93b
000001d0: 4fff 70bc 359c c7bc e621 9c3c cfc4 fa3c
000001e0: 9d3c 543c 592a 773b 2fe6 9abc 6865 14bd
000001f0: 1328 f13a 7040 2fbb 955e 683b 27f9 aebc
00000200: f3ef d73a aea0 4ebd 11cd af3c a83a 8abb
00000210: 31eb d7ba d0e1 453b 3d13 6d3c ab34 29bc
00000220: 2e26 d93b b372 0bbc 0751 53bc deb6 373c
00000230: d8f1 a63a 81aa 04bb e967 e4bb e97e 6dbc
00000240: 1a59 6abc bfec cf3b 85ac 54bc 91c0 febb
00000250: 434d e2bc 6b5e cfbc fabb 76bc 730f e2ba
00000260: c768 86bc b738 733c a1b1 9b3c 8fee 8d3b
00000270: 51d0 dabb 1531 283c d3b3 803c e779 b33c
00000280: ceeb 40bb ecc8 9e3b a197 06bc f324 43bc
00000290: 1452 563c 69cf 503c dfc6 653c b108 913c
000002a0: 6ff9 24bc 7d44 94bc 974d 28bb 2f04 75bc
000002b0: 722a 383c 0079 a9bb a665 feb8 7b87 d8bb
000002c0: e908 7dbc b75b 96bc 5e75 f4bb 5a76 f63b
000002d0: fcda 82bc f50c 1ebc 348c 563c 7c89 483c
000002e0: f4e3 27bc 0c35 58bc 74eb ba3b 6b12 7c3c
000002f0: dc12 493c 2d9f d1bc d903 b93c 31d3 bebc
00000300: 4313 ecbc df4f 403b cff8 c7bc be35 8abc
00000310: de0d a93c 43c6 19bc 0e61 4e3c e6a5 c23b
00000320: 3a1f ed3c 23ef 8b3c c356 703c 22f4 efba
00000330: c0fa a739 a8c0 693c aa40 373c 46e5 b43c
00000340: 4db3 a43b c6cc ffbc 4dd0 c8bb 6591 4cbc
00000350: 1a87 5cbb d4b4 8438 153a 1fbd fa02 a6bc
00000360: c546 213c ee7d 453b 1560 693a dfb8 e6bb
00000370: 541a 8eb9 910c 283c c6bf 043c 6343 883c
00000380: 5c17 d0bc db5a e5bc 04be 6f39 7a19 a73c
00000390: d7db c7bb 3e6f e33c 094f 0c3c 4c77 bebc
000003a0: c4ec 503b fcaf 65bc 22e0 eb3c f47e 2bbc
000003b0: 0cfe a7bb ac8e c03c e468 e9bc 93a1 8bbc
000003c0: 0a72 0f3b 15cc 9cbc 655f ad3a 5ba5 953c
000003d0: a696 a83b 28c5 b2bc b3df 7d3c f8e6 53bc
000003e0: 9f90 4c3c 5436 6ebc 7b77 35bb e445 153c
000003f0: c3f8 4dbb 80a3 14bc 056d 87ba a9dd 12b9
