data/checkpoint.actor0.pth (torch_old, 563105 bytes, 6 tensors)

fc1.weight f4 [400, 48]
0	0x3ab5c1a2	0.0013866911
1	0xbd24af7b	-0.040206414
2	0xbcdb0f95	-0.026740829
3	0x3dafa6d3	0.08576741
4	0x3cae7667	0.021296693
5	0x3cf86ca7	0.030325247
6	0x3d409453	0.047016453
7	0x3ce8cce7	0.028418018
8	0x3c9a3a26	0.018826555
9	0xbd54f3cf	-0.051990326
10	0x38ffdfc3	0.000122010264
11	0x3dd35468	0.103188336
12	0xbd94951a	-0.07255001
13	0x3d95e407	0.073188834
14	0xbcb3b9f6	-0.021939259
15	0x3c75d99e	0.015005497
16	0xbd0060ac	-0.031342193
17	0x3b7f1647	0.003892319
18	0x3a9d4011	0.0011997243
19	0x3d1aa8c0	0.03775859
20	0xbd811e1e	-0.063045725
21	0x3e14fe7c	0.14550203
22	0x3d3e0c1c	0.046398267
23	0x3cc8b903	0.024502283
24	0xbd51d738	-0.05123064
25	0x3c73e19b	0.0148853315
26	0xbc3a2b7a	-0.011362905
27	0x3dcde31e	0.10053085
28	0xbc78b2ea	-0.015179375
29	0xbc1cccd5	-0.00957032
30	0xbce7f6a6	-0.028315853
31	0x3dcc4772	0.099745646
32	0xbd32f053	-0.043686222
33	0x3c9b7f40	0.018981576
34	0x3d1dadc7	0.038495805
35	0x3d5675c1	0.052358393
36	0x3d9cac50	0.076500535
37	0x3cc65dde	0.024214681
38	0x3d0c21a4	0.03421177
39	0x3d5f9050	0.054580986
40	0x3cc635fc	0.024195664
41	0xbc95daed	-0.018292869
42	0xbd547356	-0.051867805
43	0xbd513a2b	-0.051080864
44	0x3d137ab9	0.03600571
45	0x3e04d22a	0.12970796
46	0x3bd18183	0.006393613
47	0xbd30b27d	-0.04313897
48	0x3d615e20	0.055021405
49	0xbd9efda9	-0.077632256
50	0x3c89e1b4	0.016831256
51	0xbe5598a0	-0.20859003
52	0xbd96974e	-0.07353078
53	0x3c6cb21a	0.01444676
54	0x3ce678e6	0.02813382
55	0xbe524d82	-0.2053738
56	0xbd1f0f6e	-0.038833074
57	0xbdfc6b62	-0.12325169
58	0xbd179eaf	-0.037016567
59	0xbd670307	-0.05639937
60	0x3a66b642	0.0008800962
61	0x3d59c54e	0.05316668
62	0xbd888b8d	-0.06667242
63	0xbd495ac1	-0.049158815
64	0x3c191896	0.009344241
65	0xbd30a5a5	-0.04312672
66	0x3add340c	0.0016876473
67	0xbd68b424	-0.05681242
68	0x3d4cce7d	0.05000161
69	0xbd57e7a9	-0.052711163
70	0xbc9f2ec2	-0.019431476
71	0xbd24a68b	-0.04019789
72	0x3d742960	0.05960977
73	0x3ceaaf79	0.028648125
74	0x3d3c6e08	0.04600337
75	0xbb24a835	-0.0025124673
76	0x3d9243a4	0.07141808
77	0x3bfe11a5	0.0077535682
78	0xbcf38ded	-0.029730761
79	0xb8f4ea45	-0.00011678463
80	0x3cd28d35	0.025702098
81	0xbd1f82dc	-0.038943157
82	0x3cb1a5cb	0.021685502
83	0xbd4ac928	-0.049508244
84	0xbcea0ad4	-0.028569616
85	0x3da5e66e	0.081005916
86	0xbd1974f4	-0.03746505
87	0xbd9916c9	-0.07475049
88	0xbd1c708e	-0.038193278
89	0xbd866417	-0.065620594
90	0xbd1a61ef	-0.037691053
91	0xbd7be79f	-0.061500188
92	0xbcb478f8	-0.022030339
93	0xbd1cffe4	-0.038329974
94	0xbd1d2e3a	-0.038374163
95	0xbd26bfe2	-0.040710337
96	0x3caae417	0.020860715
97	0x3e4695eb	0.19393127
98	0x3d21080b	0.03931431
99	0x3e0750ac	0.13214368
100	0x3d22fb63	0.039790522
101	0xbd9f9696	-0.07792394
102	0xbbdbfbd7	-0.0067133713
103	0x3e1be658	0.15224588
104	0x3daeb590	0.08530724
105	0x3e59df55	0.212766
106	0x3c53da53	0.0129304705
107	0x3d791b89	0.060817275
108	0x3d32dc04	0.043666855
109	0x3c7bb023	0.0153618185
110	0xbd08ceba	-0.033400275
111	0x3d1e6a79	0.03867576
112	0x3d8da59c	0.06916353
113	0x3e3285e5	0.17433889
114	0x3cc0fd1b	0.02355819
115	0xbe4b668c	-0.19863337
116	0x3d9b6db0	0.075892806
117	0x3c7d5438	0.015461974
118	0x3cad218b	0.021134159
119	0xbe382224	-0.17981774
120	0x3d469af4	0.04848762
121	0xbca521f3	-0.02015779
122	0x3ccaf1f0	0.024773568
123	0x3995a4aa	0.0002854218
124	0xbd0e1379	-0.03468654
125	0xbc2ed51f	-0.010670929
126	0xbd0dd8f0	-0.034630716
127	0xbc593d9d	-0.013259319
128	0xbc7c66a7	-0.015405334
129	0x3d06892d	0.032845665
130	0x3d58ee98	0.052961916
131	0xbdb0ffdc	-0.08642551
132	0xbd1967c2	-0.037452467
133	0xb8af1219	-8.348021e-05
134	0x3caad996	0.020855706
135	0xbc23593f	-0.009970008
136	0x3d6ae663	0.05734862
137	0xbc8a2ac3	-0.016866094
138	0xbb59987a	-0.0033202455
139	0xbdf11abe	-0.11772679
140	0xbcfef533	-0.03112278
141	0x3bc2cf27	0.0059451046
142	0xbb65ffab	-0.0035095017
143	0xbdad8380	-0.08472347
144	0xbd863553	-0.065531395
145	0xbdde7b4d	-0.108633615
146	0x3cc4b72e	0.024013128
147	0x3cad86a5	0.021182368
148	0x3cc34026	0.0238343
149	0xbcd500e0	-0.026001394
150	0xbb756b95	-0.0037448157
151	0xbd9a20bc	-0.07525775
152	0xbd9273d3	-0.07150998
153	0xbdd57dd6	-0.10424392
154	0x3cf3945c	0.02973383
155	0xbc8c43b2	-0.017122123
156	0x3c81f87c	0.015865557
157	0xbd9eabdd	-0.07747624
158	0xbc405a13	-0.011740225
159	0xbc6689c4	-0.014070932
160	0xbd9ed0b5	-0.077546515
161	0xbda164af	-0.07880532
162	0x3caffebc	0.021483772
163	0xbd50357f	-0.050832268
164	0xbc946e82	-0.0181191
165	0xbe304a14	-0.17215759
166	0xbcec0b0d	-0.028813863
167	0x3ba9b114	0.00517858
168	0x3e3edc97	0.18638836
169	0xbe187de7	-0.14891778
170	0x3c64cdfd	0.013965127
171	0xbc7c6b60	-0.01540646
172	0x3d17ebbb	0.037090044
173	0xbb1cd03b	-0.0023927826
174	0xbd39de98	-0.045378298
175	0xbd497be4	-0.049190417
176	0x3e2d7610	0.16939569
177	0xbd638725	-0.055548806
178	0xbc6d5ae2	-0.014487
179	0xbd757429	-0.059925232
180	0x3d20fe7e	0.039305203
181	0xbd8ac598	-0.06775969
182	0xbc331f37	-0.010932735
183	0x3c153aaa	0.009108225
184	0x3e091f4f	0.1339085
185	0xbddd4138	-0.10803455
186	0xbd89dffa	-0.06732173
187	0x3c236a2f	0.009974047
188	0x3d3ca895	0.04605921
189	0xbe18af4f	-0.14910625
190	0x3c239699	0.009984636
191	0x3c8fd8e5	0.017559478
192	0x3ce67cd4	0.028135695
193	0xbe032679	-0.12807645
194	0xbcc06346	-0.023484837
195	0x3cd1c369	0.025605874
196	0x3d30cf43	0.04316641
197	0xbdba0694	-0.09083286
198	0xbc1ced9e	-0.009578137
199	0x3d60591e	0.05477249
200	0x3d71f7a2	0.05907405
201	0xbcbd42d9	-0.023103165
202	0xbcceac23	-0.025228566
203	0x3d183b8c	0.037166163
204	0x3ce4ed2d	0.027945125
205	0x3b85e1b3	0.0040857433
206	0xbc058714	-0.008149881
207	0xbb6b2047	-0.0035877393
208	0x3c21653c	0.009850796
209	0xbd8fab90	-0.07015145
210	0xbbcf1372	-0.0063194567
211	0x3b8cc66e	0.0042961156
212	0xbd8eada9	-0.06966717
213	0x3d6140ff	0.054993626
214	0x3c8787e5	0.016544292
215	0x3b863b94	0.0040964577
216	0x3cb0202a	0.021499712
217	0xbc872b5d	-0.01650017
218	0xbd90c0ab	-0.070679985
219	0xbc527b65	-0.012846802
220	0xbdbe2c73	-0.09285822
221	0xbd83a11d	-0.06427214
222	0xbdadb0ae	-0.084809646
223	0x3c5ba8da	0.013406957
224	0xbca03814	-0.01955799
225	0x3c8442e9	0.016145186
226	0x3cac43b4	0.021028377
227	0x3d00eb69	0.031474505
228	0x3ae6a7d7	0.0017597628
229	0xbd8445ec	-0.06458649
230	0x39a64c40	0.00031718798
231	0xbd7999f0	-0.060937822
232	0x3c884c96	0.016638082
233	0xbcab7185	-0.020928154
234	0xbc1c20a9	-0.009529271
235	0x3d23f74d	0.040030766
236	0x3d0ddc5b	0.034633975
237	0x3cb27bca	0.021787543
238	0xbb8571d3	-0.004072407
239	0x3d80037d	0.06250665
240	0xbd506630	-0.050878704
241	0x3e0e1410	0.1387484
242	0xbd411d19	-0.04714689
243	0xbd8b16a1	-0.067914255
244	0xbcb3371a	-0.02187686
245	0xbd2e1625	-0.042501587
246	0x3c31868f	0.010835304
247	0xbd0f6e5f	-0.035017367
248	0xbbfdfd60	-0.007751152
249	0x3e51b8d5	0.20480664
250	0xbb479bb4	-0.0030457797
251	0xbd2afbd3	-0.041744065
252	0xbc26613c	-0.010155018
253	0xbe182c13	-0.14860563
254	0xbc7a88d0	-0.015291408
255	0xbd1f6386	-0.038913272

fc1.bias f4 [400]
0	0x3dd7bd07	0.10534101
1	0x3dc61efc	0.096738786
2	0x3df333fb	0.11875149
3	0xbdb77948	-0.089586794
4	0x3d973305	0.07382778
5	0x3dc56a50	0.09639418
6	0x3e27d7e9	0.16390957
7	0xbe026da2	-0.12737134
8	0xbde948c1	-0.1139083
9	0x3c93ed3e	0.018057462
10	0x3d73dd51	0.059537236
11	0x3e33a191	0.17542101
12	0xbd1c9445	-0.03822734
13	0x3d89dcc1	0.067315586
14	0xbc86fef3	-0.016478991
15	0x3d829722	0.063764825
16	0xbd05c7ce	-0.03266125
17	0x3d8af8b2	0.06785716
18	0xbd9ce8e9	-0.076616116
19	0xbdb12b5a	-0.08650847
20	0xb8b5081e	-8.6322645e-05
21	0x3db90e0c	0.09035882
22	0xbe0bc43b	-0.13649075
23	0x3e0df928	0.13864577
24	0x3d632b61	0.05546129
25	0x3db64d1e	0.08901428
26	0x3d058d1a	0.032605268
27	0x3da8f9c8	0.08250767
28	0x3e2cf20d	0.1688921
29	0xbde84cdb	-0.11342784
30	0x3ddea5bc	0.10871455
31	0x3d9dd5cd	0.07706795
32	0xbe29433d	-0.16529556
33	0x3dc02caa	0.09383519
34	0xbe3c3884	-0.18380934
35	0xbe063a97	-0.13108288
36	0xbdd266e4	-0.10273531
37	0xbdb46428	-0.08808166
38	0xbe1624cb	-0.14662473
39	0x3d379216	0.044817053
40	0xbe0e4bcc	-0.13896102
41	0xbbe70b3d	-0.0070509003
42	0xbe129e11	-0.1431811
43	0xbdd85263	-0.10562589
44	0x3c9f2233	0.019425487
45	0xbcdd880f	-0.027042417
46	0xbcb9c9b4	-0.022679187
47	0x3d6062b0	0.054781616
48	0x3ca30aa1	0.01990253
49	0x3e0f041f	0.13966416
50	0x3cbd1563	0.023081487
51	0xbcba8d86	-0.022772562
52	0x3d66c8e7	0.05634394
53	0xbd738f83	-0.059463035
54	0xbe3cdedf	-0.18444394
55	0xbbfdd476	-0.0077462746
56	0xbda812f1	-0.08206738
57	0x3d093b66	0.033503912
58	0x3e0b18af	0.13583635
59	0x3d65c5b3	0.056096744
60	0xbd5afabf	-0.053461786
61	0x3e33dbfb	0.17564385
62	0x3d839b85	0.06426147
63	0xbcfec503	-0.031099802
64	0xbe297575	-0.16548713
65	0x3bb74980	0.0055934787
66	0x3c7c6369	0.015404561
67	0xbcd525da	-0.026019026
68	0x3db8ad9f	0.090174906
69	0x3df34627	0.11878615
70	0xbe13238a	-0.14369026
71	0x3e132f79	0.14373578
72	0xbc1c3d3a	-0.009536082
73	0x3cba8d44	0.022772439
74	0xbcf9046f	-0.030397622
75	0xbccb0663	-0.024783319
76	0xbd9ce318	-0.07660502
77	0xbd9f7e71	-0.07787789
78	0x3d511d55	0.051053364
79	0xbd2c907e	-0.042129986
80	0x3e188d31	0.1489761
81	0xbcb964a5	-0.022630999
82	0xbdf1ecde	-0.11812757
83	0x3e3dbd0c	0.18529147
84	0x3dc7ebf9	0.09761805
85	0xbd608e70	-0.05482334
86	0x3d96a5bc	0.0735583
87	0xbe104122	-0.14087346
88	0xbdcfe0df	-0.10150313
89	0xbdea3bd1	-0.1143719
90	0x3cf92d85	0.030417213
91	0x3dc81745	0.09770063
92	0xbca6a5b0	-0.020342678
93	0xbd364ae0	-0.044505
94	0xbd063f30	-0.032775104
95	0x3db9ba8c	0.09068784
96	0x3c34e745	0.011041467
97	0x3d1bc911	0.03803355
98	0x3cd00ce4	0.025396772
99	0x3d34a9d1	0.044107262
100	0x3c8383c1	0.016054036
101	0xbdcec8a0	-0.1009686
102	0x3dd8bd49	0.10582978
103	0xbe180a69	-0.14847721
104	0xbd7a0107	-0.061036136
105	0xbd4b45dc	-0.04962717
106	0x3c671916	0.014105102
107	0xbd263845	-0.040581007
108	0xbd00761a	-0.03136263
109	0x3d3d428f	0.046206053
110	0xbdb6011c	-0.0888693
111	0xbc5939bb	-0.013258393
112	0x3d246c75	0.040142495
113	0xbe4a92df	-0.1978259
114	0x3c506c97	0.012721202
115	0x3c53ebbf	0.012934624
116	0xbd953813	-0.07286086
117	0xbba9eb60	-0.0051855296
118	0xbcafdc46	-0.02146734
119	0x3cf92ded	0.030417407
120	0xbdb37a4c	-0.08763561
121	0x3dbd6206	0.09247212
122	0x3d97d26f	0.07413184
123	0xbd876259	-0.06610555
124	0xbdb469d3	-0.08809247
125	0x3dac8531	0.08423842
126	0x3d0f331c	0.03496085
127	0xbda96f9e	-0.082732424
128	0x3b67fce5	0.003539854
129	0x3d55fb03	0.052241337
130	0xbe1d912c	-0.1538741
131	0xbce29bd0	-0.027662188
132	0x3db9add1	0.09066356
133	0xbe41670a	-0.18886963
134	0xbb60dd5a	-0.0034311623
135	0xbdea4ad0	-0.114400506
136	0xbd99d586	-0.075114295
137	0x3e377c66	0.17918548
138	0x3ddde1a2	0.10834052
139	0x3d4f84aa	0.050663628
140	0x3e1add21	0.15123416
141	0xbe0ce4b1	-0.13759114
142	0x3cd7a145	0.026322016
143	0xbc01340c	-0.007885944
144	0x3d55cb2c	0.052195713
145	0xbd4a2857	-0.049354877
146	0x3d072811	0.032997195
147	0x3dc2a0e8	0.09503347
148	0xbe064101	-0.13110735
149	0x3db3d8b2	0.08781566
150	0x3d3f9947	0.046777036
151	0xbdd6b759	-0.104841895
152	0x3d3459f7	0.04403111
153	0x3db745ed	0.08948884
154	0x3ca0f719	0.019649075
155	0xbd826a36	-0.063679144
156	0x3d95b47c	0.07309815
157	0x3db5b950	0.08873236
158	0x3a9b0e83	0.0011829886
159	0x3cac7682	0.021052603
160	0x3c974e81	0.01847005
161	0x3da56a03	0.08076861
162	0xbda59daa	-0.08086713
163	0xbe05c84b	-0.13064687
164	0x3cc0e1ff	0.023545263
165	0x3d93f80a	0.07225044
166	0xbca82c8e	-0.020529058
167	0x3da0ac48	0.0784536
168	0xbd2d75af	-0.04234856
169	0xbd9e20cf	-0.077211015
170	0x3e1ea1a3	0.15491347
171	0xbdeb6e1f	-0.11495613
172	0x3c2dd1a1	0.010609061
173	0x3df3b520	0.11899781
174	0xbd888f01	-0.06667901
175	0xbc85068a	-0.01623847
176	0xbd8148ba	-0.063126996
177	0xbe3b84e3	-0.18312411
178	0xbdad2d43	-0.084558986
179	0xbd15ebb9	-0.036601756
180	0xbd6c883b	-0.057747107
181	0xbe0c5676	-0.13704857
182	0x3d9ba7b0	0.07600343
183	0x3e039671	0.12850358
184	0x3e02d4c4	0.12776476
185	0x3cf5ac55	0.0299894
186	0xbdb070ed	-0.08615289
187	0xbdca193a	-0.09868093
188	0x3d1aea7f	0.03782129
189	0x3dd686b7	0.104749136
190	0xbe01e9cc	-0.12686843
191	0x3de35cc3	0.11101677
192	0x3d36d747	0.0446389
193	0xbd86ffa2	-0.06591727
194	0xbe159784	-0.1460858
195	0x3d3de3e7	0.046359923
196	0x3c428605	0.011872773
197	0xbe0205db	-0.12697546
198	0x3dac3c9f	0.0841
199	0x3d1a4151	0.037659947
200	0xbd91dba1	-0.07121969
201	0xbbb8ae32	-0.005636
202	0x3cc0fd65	0.023558328
203	0xbd03de03	-0.03219415
204	0xbdd33a2f	-0.10313832
205	0xbdbcfde6	-0.09228115
206	0x3e02c5da	0.12770787
207	0x3e103bb8	0.14085281
208	0x3d0f0489	0.034916434
209	0x3d0cf411	0.034412447
210	0x3dd74cc9	0.105126925
211	0xbd59d820	-0.05318463
212	0x3d6fcd5b	0.05854545
213	0x3cef5bec	0.029218636
214	0xbc7bcf9b	-0.015369321
215	0x3dc464b4	0.0958952
216	0xbd84e522	-0.06489016
217	0x3e3692ca	0.17829433
218	0xbdbd8a79	-0.09254927
219	0x3dd4925a	0.10379477
220	0xbcf6b088	-0.030113474
221	0x3e2bf2af	0.16791795
222	0xbd4d8608	-0.05017665
223	0x3d5d051a	0.053959943
224	0x3e1ca8cd	0.15298767
225	0xbd1bb0ef	-0.038010534
226	0xbccd72b5	-0.02507911
227	0xbda5d858	-0.08097905
228	0x3b032e90	0.0020016767
229	0x3c7ac803	0.015306476
230	0xbdabdb3c	-0.08391425
231	0xbd997cd2	-0.07494511
232	0x3dcce508	0.10004622
233	0x3ddc726a	0.1076401
234	0x3de68827	0.11256438
235	0xbdcf34c7	-0.10117488
236	0xbd90addd	-0.07064412
237	0xbce6aef9	-0.028159605
238	0xbd8bac19	-0.068199344
239	0x3cd66ca6	0.026174854
240	0xbd42b575	-0.047536332
241	0xbdb074cb	-0.086160265
242	0xbdeb3508	-0.11484724
243	0xbcceb669	-0.025233464
244	0xbc51e44e	-0.01281078
245	0xbe291ac8	-0.16514122
246	0x3da785ec	0.081798404
247	0xbda18fc9	-0.07888753
248	0x3d7f0baa	0.062266983
249	0x3d6a67a8	0.05722776
250	0xbe134dd7	-0.14385162
251	0xbcb5d265	-0.02219505
252	0xbd926b5a	-0.07149382
253	0x3df898f7	0.12138551
254	0xbd9e3a92	-0.07726015
255	0x3e008fd9	0.12554874

fc2.weight f4 [300, 400]
0	0xbd50d16c	-0.05098097
1	0x3d809bae	0.062796935
2	0xbd6658ad	-0.05623691
3	0xbc8a5402	-0.016885761
4	0xbd1caab8	-0.038248748
5	0x3d823ad7	0.06358879
6	0x3bc9bb09	0.0061563295
7	0xbd5d09de	-0.05396449
8	0xba88e995	-0.001044559
9	0x3a4415ef	0.0007480075
10	0x3d68ab6f	0.056804117
11	0x3ccdb647	0.02511133
12	0xbe5580ad	-0.20849867
13	0x3d96abc2	0.07356979
14	0xbc98aa37	-0.018635852
15	0x3d8a0112	0.067384854
16	0x3cfcacd2	0.030844126
17	0xbd21e8da	-0.039528705
18	0x3cbe9f24	0.023269244
19	0xbd566617	-0.052343454
20	0x3c59bdf8	0.013289921
21	0x3d039e0b	0.032133143
22	0xbb2aa434	-0.0026037814
23	0xbd13162c	-0.035909817
24	0xbc2c3b07	-0.01051212
25	0xbce91047	-0.028450144
26	0xbd259f50	-0.040435135
27	0x3d516ec2	0.051131018
28	0xbb77ff22	-0.003784128
29	0x3dc0f142	0.09421016
30	0x3d258b52	0.04041607
31	0xbe3a0f1a	-0.18169823
32	0x3dbde893	0.09272876
33	0xbd066536	-0.032811366
34	0x3dbd0077	0.09228604
35	0xbdcd51e2	-0.100253835
36	0xbd6ff751	-0.05858547
37	0xbdd25387	-0.10269838
38	0x3d8f7a5e	0.070057616
39	0xbdad8e7c	-0.08474442
40	0xbaf8eaa6	-0.0018990829
41	0x3da86552	0.0822245
42	0xbbc3a183	-0.0059701814
43	0xbe05ed0c	-0.13078707
44	0xbdb96b49	-0.09053666
45	0x3de59022	0.11209132
46	0x3d2d4736	0.04230424
47	0xbc2006f1	-0.00976728
48	0xbd3ef7e0	-0.04662311
49	0xbbc64fec	-0.006052008
50	0xbc0ccb9d	-0.008593467
51	0x3d5f0a11	0.05445296
52	0x3d5eebe6	0.05442419
53	0x3d7bf0ff	0.06150913
54	0x3d431f35	0.047637183
55	0x3bdccb2d	0.0067380876
56	0x3c97cdaa	0.018530685
57	0x3cbf947d	0.023386234
58	0x3c7cdc09	0.01543332
59	0x3b91164a	0.004427706
60	0xbd93f1fe	-0.07223891
61	0x3d938929	0.072038956
62	0x3bd493da	0.006487352
63	0x3b83b74a	0.0040196525
64	0xbcc268cf	-0.023731617
65	0x3c8ab355	0.016931215
66	0x3db90dd9	0.09035844
67	0xbd0ffe0a	-0.03515438
68	0x3d0b7836	0.03405019
69	0x3c505bfc	0.012717243
70	0xbd602dec	-0.054731295
71	0xbd4b5c9e	-0.049648874
72	0xbcedaf92	-0.029014383
73	0x3a01d26c	0.0004952315
74	0x3e073831	0.13205029
75	0xbd9aef9d	-0.07565234
76	0x3d6d002c	0.057861492
77	0xbd2bdabd	-0.041956652
78	0x3d0dc06a	0.03460733
79	0xbd858558	-0.06519574
80	0x3de6da78	0.11272138
81	0xbcb2f55b	-0.02184551
82	0xbb871621	-0.004122511
83	0x3c92b113	0.017906701
84	0xbdb15ccb	-0.08660277
85	0xbd67bdc0	-0.056577444
86	0xbddb3d3f	-0.10705041
87	0xbdfe24a7	-0.12409335
88	0x3ce77ca0	0.028257668
89	0xbc7b1882	-0.015325667
90	0x3da3265e	0.07966302
91	0xbd3e40ee	-0.04644864
92	0xbdb3e2c1	-0.08783484
93	0xbc27d703	-0.010244134
94	0xbcb62fc2	-0.02223957
95	0x3dbfe84f	0.09370481
96	0xbce40755	-0.027835527
97	0x3d405795	0.046958525
98	0x3c28a60e	0.010293497
99	0xbdaa8c60	-0.08327556
100	0xbcedf9ff	-0.029049871
101	0xbd4a0f71	-0.049331132
102	0xbd7c0630	-0.06152934
103	0xbda47534	-0.08030167
104	0x3d16f898	0.03685817
105	0x3ca927d6	0.020648878
106	0xbe239083	-0.15973096
107	0x3dc18e79	0.09451003
108	0x3dbcd5b9	0.09220452
109	0xbb933076	-0.004491861
110	0x3ccadfba	0.024764884
111	0x3ca1c984	0.01974941
112	0xbd919fe4	-0.07110575
113	0xbd8c2c57	-0.06844395
114	0x3d2b64ba	0.041844107
115	0x3d449b07	0.047999408
116	0xbd26d511	-0.04073054
117	0xbe076b72	-0.13224581
118	0x3cd4b9eb	0.025967559
119	0xbd9431f4	-0.0723609
120	0xbd179c5a	-0.037014343
121	0x3c5cd31a	0.013478065
122	0xbd004dc9	-0.03132418
123	0x3db3cb79	0.08779044
124	0xbd9924e2	-0.07477738
125	0x3d6fb956	0.05852636
126	0xbd1db494	-0.03850229
127	0x3d2ff048	0.04295376
128	0x3d4e6d0a	0.050396957
129	0x3cfea654	0.03108517
130	0xbd8dbb16	-0.069204494
131	0xbcf7a80a	-0.030231494
132	0xbb036f8b	-0.0020055498
133	0x3bed738c	0.0072464403
134	0x3cb9f9a1	0.02270204
135	0xbd83f741	-0.06443644
136	0x3d6bc02e	0.057556324
137	0x3cb4dd2a	0.022078115
138	0xbc75da58	-0.0150056705
139	0xbc942191	-0.018082412
140	0x3c1d125e	0.009586899
141	0xbdb822d5	-0.08991019
142	0xbc214ac2	-0.009844484
143	0xbd1e15db	-0.03859506
144	0x3d3f1404	0.046649948
145	0x3d61850d	0.055058528
146	0x3d1b8aa3	0.03797401
147	0x3c0adb50	0.00847514
148	0xbd7250f7	-0.059159245
149	0x3ab58234	0.0013848008
150	0x3d986dd8	0.07442826
151	0x3de4b235	0.11166803
152	0xbd24eaf8	-0.040263146
153	0xbd40f272	-0.047106214
154	0x3d0490b1	0.03236455
155	0x3ce8f04f	0.0284349
156	0x3c13410d	0.008987677
157	0x3d0ba8d1	0.034096543
158	0xbde856aa	-0.11344655
159	0x3d90f449	0.07077844
160	0x3c0e6030	0.008689925
161	0xbd45f247	-0.048326757
162	0x3cae881d	0.021305138
163	0x3c8a3a4a	0.016873498
164	0xbcabc033	-0.020965671
165	0x3d17e390	0.037082255
166	0x3d31da19	0.043420885
167	0x3cf6921c	0.030098967
168	0xbdd0d925	-0.10197667
169	0xbd37f81c	-0.04491435
170	0x3c04735a	0.008084143
171	0x3da8994f	0.08232366
172	0x3d13338f	0.035937842
173	0x3cdecf87	0.027198566
174	0x3d54a4cf	0.051914986
175	0x3d9db4dd	0.077005126
176	0xbdab471e	-0.08363174
177	0xbd3f94cf	-0.046772774
178	0xbcf8ba76	-0.030362349
179	0xbd864a6c	-0.065571636
180	0x3d45d72e	0.048300914
181	0x3d7f9342	0.062396295
182	0xbccfe6b3	-0.02537856
183	0xbd2c005a	-0.041992523
184	0x3d01a975	0.031655747
185	0xbc321b28	-0.010870732
186	0x3b03201b	0.002000815
187	0xbdbdb699	-0.09263343
188	0x3d0d41f2	0.03448672
189	0x3d53cfb7	0.051711764
190	0xbd2f50a7	-0.042801525
191	0xbb03f61c	-0.0020135706
192	0xbe0abd14	-0.1354869
193	0x3c09e097	0.008415363
194	0xbdd90423	-0.10596492
195	0x3c1e97ce	0.009679748
196	0x3c37915d	0.011204091
197	0x3bf7c286	0.007561031
198	0xbb8b4420	-0.0042500645
199	0xbc841867	-0.016124917
200	0x3c0e09e6	0.008669352
201	0xbadbea4e	-0.0016778202
202	0x3d82fc73	0.06395807
203	0xbd4f60d9	-0.05062947
204	0x3c3e62ab	0.011620204
205	0x3e699db6	0.22814068
206	0x3c423c35	0.011855175
207	0x3d401a7f	0.04690027
208	0x3b64a220	0.0034886673
209	0x3cc1170d	0.023570562
210	0x3ccfe32d	0.02537688
211	0xbd129c0a	-0.03579334
212	0x3d30b9ba	0.043145873
213	0x3d07570f	0.03304201
214	0xbd8128ff	-0.063066475
215	0x3dcf2942	0.10115291
216	0x3da632f2	0.08115186
217	0x3dee4c99	0.116357036
218	0x3cccb74d	0.024989748
219	0x3d1eb746	0.038749002
220	0x3d4521ae	0.048127823
221	0x3d60ccbf	0.05488276
222	0xbda27d89	-0.079341
223	0x3d26db26	0.04073634
224	0xbcec2a5d	-0.028828794
225	0xbdc68fb6	-0.096953794
226	0x3c1c490a	0.009538898
227	0x3da5ad44	0.080896884
228	0x3d8b957b	0.068156205
229	0x3d1f4460	0.038883567
230	0x3d4b7947	0.049676206
231	0xbc848955	-0.016178766
232	0xbb915af7	-0.0044358927
233	0x3d3201f9	0.043458913
234	0xbdcc4152	-0.09973396
235	0x3d03597e	0.03206777
236	0xbd325617	-0.043539133
237	0xbc902118	-0.017593905
238	0xbd08c15d	-0.03338753
239	0x3d3c8d85	0.0460334
240	0x3ced586f	0.028972832
241	0xbcc4fb95	-0.024045745
242	0xbc63ad08	-0.013896234
243	0x3da167c4	0.0788112
244	0x3cf91062	0.03040332
245	0x3d306808	0.043067962
246	0xbcf807fe	-0.030277248
247	0xbb441d15	-0.002992456
248	0x3c80417c	0.015656225
249	0xbd7e8f20	-0.062148213
250	0xbd3640ab	-0.044495266
251	0xbcbaac3a	-0.022787202
252	0x3d82510f	0.06363117
253	0xbd8871c5	-0.06662325
254	0x3d4976c2	0.049185522
255	0xbd2999da	-0.04140649

fc2.bias f4 [300]
0	0x3cfc07d6	0.030765455
1	0x3d7a1b1c	0.06106101
2	0x3d8a899a	0.06764527
3	0x3bbd3539	0.005774167
4	0xbd07abe4	-0.033122912
5	0x3cff5441	0.031168105
6	0x3b5ff119	0.0034170805
7	0xbc2916c4	-0.010320369
8	0x3bd18b8e	0.00639481
9	0x3bc5bed3	0.006034711
10	0xbbc9406e	-0.006141714
11	0x3d3a77c3	0.04552437
12	0x3d8939b5	0.0670046
13	0x3d6ef7f9	0.058341954
14	0xbd6b3b09	-0.057429347
15	0x3d2c2fdd	0.042037833
16	0xbd0f9044	-0.03504969
17	0x3d480206	0.048830055
18	0xbd45f64e	-0.048330598
19	0x3ce2ca8c	0.027684473
20	0x3d42dc31	0.047573272
21	0x3d4a68df	0.04941642
22	0x3d13723e	0.03599762
23	0x3ca0b6a5	0.019618342
24	0x3d2ebf05	0.04266264
25	0x3d52dc7c	0.0514798
26	0xbcea800a	-0.028625507
27	0x3b31966f	0.0027097722
28	0x3cd727d0	0.026264101
29	0x3c81cf0d	0.0158458
30	0x3dc479f9	0.09593577
31	0xbc138e26	-0.009006059
32	0x3ca8e630	0.020617574
33	0xbd42d1f3	-0.047563504
34	0x39e5b009	0.0004380944
35	0xbd09fb9d	-0.033687223
36	0xbcb1c676	-0.021701079
37	0x3b93403e	0.0044937422
38	0x3db1c5bb	0.08680292
39	0x3cfd3003	0.030906683
40	0xbc852da4	-0.016257115
41	0x3c2de715	0.010614176
42	0xbd654e83	-0.055983078
43	0x3d8053a0	0.0626595
44	0x3d61931b	0.05507193
45	0x3c578ad2	0.013155656
46	0x3d94df50	0.07269156
47	0x3ccbbcfa	0.024870384
48	0x3d866e4e	0.06564008
49	0x3d1fe8df	0.039040443
50	0x3b9e3efe	0.0048292866
51	0xbc0a21c8	-0.008430906
52	0xbd147919	-0.0362483
53	0x3bd162a1	0.0063899313
54	0x3b1afa75	0.002364782
55	0xbd3e39d6	-0.046441875
56	0xbcbd6eea	-0.023124177
57	0x3dad9572	0.0847577
58	0x3cfc1725	0.030772755
59	0x3c00bd95	0.0078577
60	0xbc7ebe2d	-0.015548271
61	0x3d1a8325	0.037722725
62	0x3b82eafd	0.003995298
63	0xbd00eb4e	-0.031474404
64	0xbd7771d5	-0.060411293
65	0x3d705a69	0.05867997
66	0x3d9df9f3	0.0771369
67	0xbd052aa7	-0.03251138
68	0x3d472f09	0.04862884
69	0x3cf5cc23	0.030004567
70	0x3d9a7d60	0.07543445
71	0x3d3f88d4	0.04676135
72	0x3d12b307	0.035815265
73	0x3ca13061	0.01967639
74	0x3bf8bd2b	0.00759091
75	0x3d79b15b	0.060960155
76	0x3d3bf8f5	0.04589172
77	0x3d54b2dc	0.051928386
78	0xbdca3298	-0.09872931
79	0xbd1684b9	-0.036747668
80	0x3cf6be6e	0.0301201
81	0x3db07ed7	0.08617943
82	0x3d41b947	0.047295835
83	0xbceb8ea8	-0.028754547
84	0x3cf64e11	0.030066522
85	0x3cf8b376	0.030359011
86	0xbd4cf630	-0.05003947
87	0x3d83a201	0.06427384
88	0x3bed6e44	0.0072458107
89	0xbda90367	-0.08252602
90	0x3c14d616	0.009084245
91	0x3d1f10b0	0.038834274
92	0x3d6136f7	0.05498406
93	0xbc169354	-0.009190399
94	0x3d07950e	0.033101134
95	0xbbe966ed	-0.0071228654
96	0xbc74cc23	-0.014941248
97	0x3db27d0e	0.087152585
98	0x3d3c1930	0.04592246
99	0x3d91e6b3	0.071240805
100	0x3d073de7	0.03301802
101	0x3ca99ab6	0.020703655
102	0xbc62e439	-0.013848358
103	0x3d811683	0.06303122
104	0x3db2ab34	0.08724061
105	0xbd80c717	-0.062879734
106	0x3c58b7c5	0.013227408
107	0x3d28ec97	0.041241255
108	0xbb8ad32e	-0.0042366004
109	0x3b20ad17	0.0024517232
110	0x3db679b6	0.08909933
111	0x3d85c58a	0.06531818
112	0x3dac7ef2	0.084226504
113	0xbd9b7dec	-0.07592377
114	0x3b026201	0.001989484
115	0xbb9bdcdc	-0.004756553
116	0x3a8d34a7	0.0010773138
117	0xbc460cfb	-0.012088056
118	0xbd4fc5d2	-0.050725766
119	0xbdd61f9b	-0.10455247
120	0xbd3c0c38	-0.04591009
121	0xbd5184ff	-0.051152226
122	0x3d0cbccd	0.034359742
123	0x3c1407dd	0.009035078
124	0xbd7a907f	-0.06117296
125	0xbbffa283	-0.0078013553
126	0x3c5288b7	0.012849978
127	0xbd1ef1bc	-0.038804755
128	0x3bed9a49	0.0072510582
129	0xbd6aa848	-0.05728939
130	0xbd34e012	-0.044159003
131	0x3d74b871	0.05974621
132	0x3b72fca7	0.0037076862
133	0xb9202500	-0.00015272573
134	0xbdbbd753	-0.09171929
135	0xbd50d7e8	-0.050987154
136	0xbce33329	-0.027734356
137	0x3c87f0ba	0.01659428
138	0x3bb90884	0.005646767
139	0xbd9199e8	-0.071094334
140	0xbbbd5375	-0.005777771
141	0x3cf532ab	0.029931387
142	0xbc701ab8	-0.014654808
143	0x3da6f7d8	0.08152741
144	0x3cff8a78	0.031193957
145	0xbb3c654f	-0.0028746908
146	0xbd84eef0	-0.06490886
147	0x3d7fbb98	0.062434763
148	0xbdaee6eb	-0.08540138
149	0xbc7ec984	-0.015550975
150	0xbd22b75b	-0.039725643
151	0x3d0b5245	0.034014005
152	0x3ae9b276	0.0017829675
153	0xbb994868	-0.004677821
154	0x3d433aee	0.04766362
155	0xbca20b62	-0.019780818
156	0x3d3cf4e0	0.04613197
157	0xbda634f7	-0.08115571
158	0xbd6afb02	-0.057368286
159	0x3d3b9ca7	0.045803692
160	0x3cc85186	0.024452936
161	0x3c1766df	0.009240835
162	0x3ba37d41	0.0049892967
163	0xbd6ad8f8	-0.057335824
164	0xbd31aa87	-0.04337552
165	0xbccd8776	-0.025089007
166	0x3d636209	0.055513415
167	0x3cbde6f8	0.023181424
168	0xbbbd01ec	-0.0057680514
169	0x3bcd1a72	0.006259256
170	0x3c9d1205	0.019173631
171	0x3d9a6f4c	0.075407594
172	0x3cbdf92d	0.023190105
173	0x3d9ab8e0	0.07554793
174	0x3b1e6ec1	0.0024174901
175	0xbd3cc7f9	-0.046089146
176	0x3cd2cad7	0.025731487
177	0xbcd85c8e	-0.026411321
178	0xba9b9e14	-0.0011872672
179	0x3c8e06d5	0.017337242
180	0xbd103ce3	-0.035214316
181	0x3d85fec3	0.065427326
182	0xbd1a5c10	-0.037685454
183	0xbd92e21e	-0.07172035
184	0x3c210a06	0.00982905
185	0x3d0034ad	0.031300236
186	0x3d08fc30	0.03344363
187	0x3d80ccd2	0.062890664
188	0xbb9133ff	-0.0044312472
189	0xbb655077	-0.0034990588
190	0x3cda2327	0.02662809
191	0x3c5cfc12	0.013487833
192	0x3c81e6c2	0.015857104
193	0x3c64ce40	0.013965189
194	0x3c4e97f7	0.012609473
195	0x3c898935	0.016789058
196	0xbd948c4d	-0.07253323
197	0x3d5e9ab1	0.054346744
198	0xbc35deb3	-0.011100459
199	0xbd9bf055	-0.07614199
200	0x3ba7b7f2	0.0051183635
201	0x3da5c455	0.08094088
202	0x3c6406b9	0.013917618
203	0x3c2adba8	0.010428347
204	0x3d16c7eb	0.03681175
205	0xbad85392	-0.0016504398
206	0x3d93f826	0.07225065
207	0x3d9d4d09	0.07680709
208	0x3d18224b	0.03714208
209	0x3d2729a3	0.040811192
210	0x3b6cfbda	0.0036160857
211	0xbd2319e5	-0.039819617
212	0x3d9649d0	0.07338297
213	0x3d2e98cb	0.042626183
214	0x3d0bf79f	0.034171697
215	0x3be22a14	0.0069019888
216	0xbde71be1	-0.11284614
217	0x3d84b262	0.06479336
218	0x3d0d8010	0.034545958
219	0x3d12a55a	0.035802223
220	0x3c27f5eb	0.0102515025
221	0xbae6e0b4	-0.0017614574
222	0x3d661607	0.05617335
223	0xbd4530ad	-0.048142124
224	0xbe0d80d2	-0.13818672
225	0x3c9e2c5d	0.019308263
226	0xbc7ff87c	-0.015623208
227	0x3cef9f40	0.029250741
228	0xbdbf1219	-0.09329624
229	0xbd7ddae7	-0.06197634
230	0xbab2d262	-0.0013643021
231	0xbc72285b	-0.014780129
232	0x3b343724	0.0027498687
233	0xbdb64543	-0.088999294
234	0xbdafa5ff	-0.08576583
235	0xbd20f337	-0.039294448
236	0xbd4763f6	-0.048679315
237	0x3c00f07e	0.007869838
238	0xbbfda3d5	-0.0077404776
239	0x3d18967a	0.03725288
240	0xbd02986a	-0.031883635
241	0x3cc61df0	0.024184197
242	0xbaff6334	-0.0019484521
243	0xbd780b07	-0.06055739
244	0xbd9e58be	-0.0773177
245	0x3cf6d763	0.030132001
246	0x3900ba80	0.00012276508
247	0x3c6a2863	0.0142918555
248	0x3d8c8882	0.06861974
249	0xbc580011	-0.01318361
250	0xbcd18d3c	-0.025580041
251	0xbbc96042	-0.006145508
252	0x3bd06a11	0.0063603004
253	0x3d6e36d0	0.058157742
254	0xbb1fc4ee	-0.0024378854
255	0x3d4f78c2	0.050652273

fc3.weight f4 [2, 300]
0	0x3e1a8ceb	0.15092818
1	0x3e39d0c5	0.18146046
2	0x3c03a44c	0.008034777
3	0x3da3428f	0.079716794
4	0xbc87dd66	-0.016585063
5	0xbd228aa7	-0.03968301
6	0x3e0ae35d	0.13563295
7	0x3d8bf089	0.06832988
8	0x3e0f7963	0.14011149
9	0xbd342de6	-0.043989085
10	0x3dbda51a	0.09260006
11	0xbd07263b	-0.032995444
12	0x3c2ac70b	0.010423432
13	0x3d11bc14	0.035579756
14	0xbd0564ea	-0.032566942
15	0x3ddd29d3	0.10798993
16	0xbd686ebb	-0.056746226
17	0x3d3c82ce	0.046023183
18	0x3e0e232b	0.13880603
19	0x3c6e29d5	0.014536341
20	0x3dd65cf9	0.10466952
21	0x3e0e84b6	0.13917813
22	0x3e797987	0.24362765
23	0x3de139e5	0.10997371
24	0x3e354870	0.17703414
25	0x3da8d9af	0.08244645
26	0xbcbcbf0e	-0.02304032
27	0xbbf5a643	-0.0074966266
28	0x3e1f9078	0.15582454
29	0x3dd30112	0.103029385
30	0x3e7ffa4f	0.24997829
31	0x3dba06e4	0.090833455
32	0x3e45e298	0.1932472
33	0x3e2398b1	0.15976216
34	0x3dd57e50	0.10424483
35	0x3d4264bb	0.047459345
36	0x3c415078	0.01179897
37	0x3c4e2353	0.012581664
38	0x3c789424	0.015172038
39	0x3df3b15c	0.11899063
40	0x3d096559	0.03354392
41	0xbe519a0c	-0.2046892
42	0xbd1d0614	-0.038335875
43	0x3cd9e649	0.026599066
44	0x3d514840	0.051094294
45	0x3dddf473	0.108376406
46	0x3dcfdad2	0.101491585
47	0x3dba07af	0.09083497
48	0x3e191c86	0.14952287
49	0x3dcf7fc5	0.10131792
50	0x3db71531	0.08939589
51	0x3c5c2522	0.0134365875
52	0xbca55e22	-0.020186488
53	0x3d00bbd4	0.031429127
54	0x3dd199db	0.10234424
55	0xbdacebe6	-0.084434316
56	0x3d8cfcac	0.06884131
57	0x3d1f2d24	0.03886141
58	0x3e85c6df	0.2612829
59	0xbdc807fe	-0.097671494
60	0xbd5a1397	-0.05324134
61	0x3da2b055	0.07943789
62	0x3e566b4b	0.20939367
63	0xbceda07b	-0.029007187
64	0xbde0129c	-0.109410495
65	0x3d588e12	0.052869864
66	0x3e04a72e	0.12954399
67	0x3e624093	0.22094946
68	0x3d8612c5	0.06546549
69	0x3e276329	0.1634642
70	0x3e1b3ef5	0.15160735
71	0x3d4128f5	0.0471582
72	0x3cd8131a	0.026376296
73	0x3c67e46f	0.014153584
74	0x3d18fd4a	0.03735093
75	0x3d87fffd	0.06640623
76	0x3da7f946	0.08201842
77	0x3b9e7748	0.004835997
78	0x3b6cf0aa	0.003615419
79	0xbcd6c2f8	-0.026216015
80	0x3da416e4	0.080121785
81	0x3dc3b181	0.095553406
82	0x3cd4c721	0.025973858
83	0xbdb76ffa	-0.08956905
84	0x3c39aa0a	0.011332044
85	0x3ca062a1	0.01957828
86	0xbc97e2a5	-0.01854069
87	0x3cbf1646	0.02332605
88	0xbc16f91b	-0.009214665
89	0xbd02e9af	-0.03196114
90	0x3dec8621	0.115490206
91	0x3d93f5a3	0.07224586
92	0x3daf1d0d	0.08550463
93	0x3c3d1a53	0.011541921
94	0x3c6268ef	0.013818963
95	0x3e20c5b6	0.1570042
96	0x3e0fbe85	0.14037521
97	0x3d3bc144	0.04583861
98	0x3d258a4a	0.040415086
99	0x3d1bba74	0.038019612
100	0x3c9f13d7	0.01941864
101	0x3d0d1b0c	0.034449622
102	0xbd8e4ccc	-0.069482416
103	0x3d2ed8c1	0.04268718
104	0x3d67e3a3	0.056613576
105	0xbce5c99b	-0.028050235
106	0xbbf6a39e	-0.007526829
107	0x3b8327a4	0.0040025283
108	0x3e11ca24	0.14237267
109	0x3d249a4d	0.040186215
110	0x3d698407	0.057010677
111	0x3df82566	0.12116508
112	0x3d8baea1	0.06820417
113	0xbdab6c71	-0.08370293
114	0x3c3486d1	0.011018471
115	0xbb4279c0	-0.002967462
116	0xbbfdcb4d	-0.0077451826
117	0xbdeaf126	-0.11471777
118	0xbcfd732e	-0.030938711
119	0xbe2c03e8	-0.16798365
120	0xbc85ff82	-0.016357187
121	0xbc47cec5	-0.012195294
122	0x3dc0e264	0.094181806
123	0x3d81d96a	0.063402966
124	0x3e17ef76	0.14837441
125	0x3dfc9f71	0.123350985
126	0xbd115283	-0.03547908
127	0x3c4ed7bc	0.012624677
128	0x3d1b7c57	0.037960377
129	0x3df2a805	0.118484534
130	0xbcde0685	-0.027102718
131	0x3e49c668	0.19704592
132	0xbcef73ff	-0.029230116
133	0x3ddaa544	0.10676053
134	0x3bf274e7	0.0073991898
135	0xbc331d1a	-0.010932231
136	0xbd585e1f	-0.052824136
137	0x3dff389b	0.124619685
138	0x3dd13ff3	0.102172755
139	0xbd32b10b	-0.043625873
140	0x3dd258a8	0.10270816
141	0xbbb1203e	-0.005405455
142	0xbdaff8d8	-0.08592385
143	0x3e35a36a	0.17738119
144	0x3e0f8e6c	0.14019173
145	0xbd85bc35	-0.06530038
146	0xbdcc5bbb	-0.09978434
147	0xbd040cc6	-0.032238744
148	0xbccdda36	-0.025128465
149	0x3d8dcc41	0.06923724
150	0xbdb19efb	-0.08672901
151	0x3e21d8ea	0.15805402
152	0xbddf573b	-0.1090531
153	0x3e153811	0.14572169
154	0x3e76bda5	0.24095781
155	0x3d71c0c2	0.05902172
156	0xbcb9a887	-0.022663368
157	0xbc059c2a	-0.008154908
158	0xbcb3d444	-0.021951802
159	0x3d153fdc	0.036437854
160	0x3d259793	0.040427756
161	0x3c847001	0.016166689
162	0xbcf2bd56	-0.029631298
163	0xbdcbab45	-0.099447764
164	0xbdccd01c	-0.10000631
165	0xba8e0d3b	-0.0010837683
166	0x3dc79e56	0.09746997
167	0xbd831ce8	-0.06401998
168	0x3e2bd4b0	0.16780353
169	0x3c033596	0.008008381
170	0x3d892a4c	0.066975206
171	0x3d802e82	0.06258871
172	0x3cd85e65	0.026412198
173	0xbbd4e077	-0.006496485
174	0x3dba472e	0.09095608
175	0xbd1fe9f6	-0.039041482
176	0x3d8fe5d6	0.070262596
177	0xbdce3032	-0.10067786
178	0x3d056cfe	0.032574646
179	0x3e310616	0.17287478
180	0xbbdd5310	-0.0067542866
181	0x3ca279c4	0.019833453
182	0xbe3717ac	-0.17880124
183	0xbceb9531	-0.028757663
184	0xbcf1bc42	-0.029508714
185	0x3da5d537	0.08097308
186	0x3eb7b3f9	0.35879496
187	0x3d9f9cfc	0.07793614
188	0x3d0bef8f	0.034164008
189	0x3d956a36	0.07295649
190	0xbbeee460	-0.007290408
191	0x3d3069aa	0.04306952
192	0x3c63f83e	0.013914166
193	0x3e0063a4	0.1253801
194	0x3d6d2db0	0.0579049
195	0x3ca9cd1a	0.020727683
196	0xbca4ee20	-0.020133078
197	0xbcd70b71	-0.026250573
198	0xbd95640b	-0.07294472
199	0xbd4c736e	-0.04991477
200	0x3d090b2b	0.033457916
201	0xbc32485e	-0.0108815115
202	0x3cc8b17b	0.024498692
203	0x3c23b664	0.009992216
204	0x3d8cfdb4	0.068843275
205	0x3a283da0	0.0006417874
206	0x3d6d91ab	0.058000248
207	0x3e1faab4	0.15592462
208	0x3d1ebf55	0.038756687
209	0x3d07ac88	0.033123523
210	0x3e77b57b	0.24190323
211	0xbccb053a	-0.024782766
212	0x3c81b893	0.015835082
213	0x3d59a909	0.05313972
214	0x3e1d631e	0.15369841
215	0x3e078caa	0.13237253
216	0xbd5c002c	-0.0537111
217	0x3e0cdd2e	0.13756248
218	0x3e458948	0.1929065
219	0x3d1264ad	0.035740543
220	0x3e2b5b25	0.16733988
221	0xbd1362c2	-0.035982855
222	0xbd3d813f	-0.046265837
223	0xbc34e427	-0.011040724
224	0xbda56294	-0.08075443
225	0x3de8ee17	0.11373537
226	0x3cf36a9e	0.029713925
227	0xbc4eeebf	-0.012630164
228	0xbd1a87d1	-0.03772718
229	0xbdc06620	-0.09394479
230	0xbc232804	-0.009958271
231	0x3e0faa1c	0.14029735
232	0xbe2d7849	-0.16940416
233	0xbd169d4f	-0.036771115
234	0xbd89cd3d	-0.06728599
235	0xbce945d5	-0.028475681
236	0xbb945ab6	-0.004527415
237	0xbddbea43	-0.10738041
238	0x3e3d65f0	0.18495917
239	0x3c04f9ee	0.0081162285
240	0xbc3f3da4	-0.011672411
241	0x3e5cda2f	0.21567605
242	0xbe12b748	-0.14327729
243	0xbd00188a	-0.031273402
244	0xbdbc8ce3	-0.092065595
245	0xbd40940c	-0.04701619
246	0xbdfee1a9	-0.12445385
247	0x3c3ec6d1	0.011644081
248	0x3d841cfc	0.06450841
249	0x3d5706a4	0.052496567
250	0x3c8cc0a4	0.017181702
251	0x3e5ff800	0.21871948
252	0x3d56f856	0.052482925
253	0x3d7e8479	0.062138055
254	0x3d7c0521	0.06152833
255	0x3cb580bf	0.022156117

fc3.bias f4 [2]
0	0x3d367020	0.044540524
1	0x3d039344	0.032122865
