data/checkpoint.critic0.pth (torch_old, 566704 bytes, 5 tensors)

fcs1.weight f4 [400, 48]
0.3427905 -0.25586754 -0.1228893 0.09946177 -0.09409793 -0.3737528 -0.06545176 0.0786855
0.54093105 -0.1655004 -0.04017235 0.4211549 -0.06781397 -0.33876482 0.017407142 0.38316056
0.8611959 0.035741407 -0.07003325 0.31496027 -0.0752273 -0.2846625 -0.119911656 0.2322146
0.08807106 0.74843484 -0.24744938 0.041104507 0.08023962 -0.45006695 -0.28662106 0.045998134
0.23632833 0.7789968 -0.060334865 -0.20231779 0.09776684 -0.31285834 -0.06060947 -0.2251717
0.3867183 0.5712544 0.116018385 -0.34353518 0.10274805 -0.27316156 0.12478626 -0.28736788
0.22101009 0.1380847 -0.06915697 -0.54913753 0.0010254183 -0.4113157 -0.12613894 -0.4764483
0.4401661 -0.11036953 0.0278077 -0.109359235 0.008655938 -0.43824217 0.030652944 -0.11282328
0.7937258 -0.07391851 0.023065185 0.364341 -0.015298514 -0.40707967 0.019240482 0.354825
0.277617 0.54502267 -0.056533765 0.042363342 0.018031465 -0.432837 -0.04411449 0.059636403
0.2343071 0.64263624 -0.0122737335 0.2558186 0.004144913 -0.3929431 -0.0628994 0.18074661
0.41340688 0.64631903 0.070949435 0.17431179 -0.027368782 -0.3817857 0.05898877 0.10878298
0.3122828 -0.055305194 -0.051733956 0.030776378 -0.0706992 -0.5114752 -0.065617494 0.070764944
0.455003 -0.071680196 -0.01820826 0.0253659 0.022961842 -0.57879126 -0.001738437 0.004214769
0.31937397 -0.124497265 -0.038034655 0.17350326 0.0274581 -0.71860915 -0.09093039 0.16141737
0.5960883 0.37732923 -0.07069353 -0.23664647 0.058887396 -0.41350946 -0.030898811 -0.18053564
0.43160698 0.3497247 -0.08315715 0.07279552 0.037314735 -0.64054215 -0.08614078 0.07539636
0.47225296 0.3655697 -0.01426402 0.008977562 -0.09294244 -0.6819851 -0.026690977 0.024991494
0.03481823 -0.84192604 0.014879164 -0.27120182 0.008734775 -0.17572613 -0.003235736 -0.21387847
0.3500902 -0.78542084 0.064061105 0.08704555 -0.09450683 -0.12619987 0.013254201 0.082270384
0.73281527 -0.73780715 -0.0054666777 -0.030250857 0.03887592 -0.08099624 0.017756019 -0.019945133
0.2795329 -0.26315168 -0.06763055 -0.14002313 -0.018407049 -0.21207602 -0.026662968 -0.14851326
0.32800898 -0.21117365 -0.052618403 0.071016885 0.009467497 -0.10097228 -0.09322 0.053883575
0.3453356 -0.12428907 -0.014469438 0.3229775 -0.08456047 -0.10763121 -0.033355355 0.3214591
-0.028443838 -0.30970156 0.053268623 0.016357807 0.20201907 0.48276818 -0.021357508 0.06397822
0.18203348 -0.14710428 -0.0017633885 0.046597347 -0.16444969 0.13228565 0.008217892 0.12172344
0.3325153 0.07214838 0.030163689 0.049114455 -0.6387291 -0.04476537 3.118435e-05 0.056248207
-0.058159236 0.5504952 0.031175086 -0.03582411 -0.20981823 0.45727912 -0.028325874 0.0048229443
-0.028071212 0.77491033 0.018922538 -0.00021055146 0.13002084 0.12427668 -0.02138983 -0.065853365
0.17890055 0.8062127 -0.032078154 -0.07609865 0.644334 -0.12538841 0.015273895 -0.06369748
0.2528841 0.111555725 0.025852052 0.21255532 0.047183637 -0.14829844 0.011965333 0.12837243
0.3213036 0.16121115 -0.011933007 -0.10758688 0.0038887016 -0.3828203 -0.008154603 -0.1566602
00000000: 3d82 af3e 1201 83be 63ad fbbd 9db2 cb3d
00000010: 6ab6 c0bd 875c bfbe 930b 86bd dd25 a13d
00000020: 757a 0a3f f078 29be c38b 24bd 9da1 d73e
00000030: 0de2 8abd 9572 adbe 6c99 8e3c 9f2d c43e
00000040: 5677 5c3f 9565 123d 986d 8fbd 7942 a13e
00000050: c510 9abd 48bf 91be 3e94 f5bd aac9 6d3e
00000060: 9a5e b43d 6d99 3f3f 5f63 7dbe 335d 283d
00000070: ab54 a43d 2d6f e6be ffbf 92be 8a68 3c3d
00000080: 0e00 723e 566c 473f b121 77bd 652c 4fbe
00000090: fb39 c83d f82e a0be a341 78bd 6993 66be
000000a0: f1ff c53e ba3d 123f 0c9b ed3d d8e3 afbe
000000b0: 926d d23d d5db 8bbe f08f ff3d e221 93be
000000c0: 7850 623e 1366 0d3e 2ba2 8dbd 4794 0cbf
000000d0: 5467 863a f997 d2be 912a 01be 08f1 f3be
000000e0: 735d e13e 6c09 e2bd f9cc e33c bcf7 dfbd
000000f0: a3d1 0d3c 4761 e0be e21b fb3c e40f e7bd
00000100: 9d31 4b3f 9662 97bd 33f3 bc3c e78a ba3e
00000110: 9ea6 7abc bf6c d0be 379e 9d3c 9fab b53e
00000120: d123 8e3e 9b86 0b3f f38f 67bd 2f85 2d3d
00000130: b9b6 933c d09c ddbe 65b1 34bd 4d45 743d
00000140: 33ee 6f3e cf83 243f c517 49bc a8fa 823e
00000150: 0dd2 873b d72f c9be 67d1 80bd a415 393e
00000160: 11aa d33e 2a75 253f f04d 913d ca7e 323e
00000170: 7f34 e0bc 6a79 c3be 359e 713d 9cc9 de3d
00000180: 88e3 9f3e b387 62bd fce6 53bd be1e fc3c
00000190: beca 90bd 0af0 02bf 7762 86bd 36ed 903d
000001a0: 27f6 e83e 11cd 92bd 7d29 95bc 26cc cf3c
000001b0: 791a bc3c aa2b 14bf 44dc e3ba 0c1c 8a3b
000001c0: fc84 a33e 6cf8 febd 3aca 1bbd d7aa 313e
000001d0: cfef e03c c5f6 37bf b639 babd 984a 253e
000001e0: 3e99 183f 4c31 c13e c5c7 90bd 7453 72be
000001f0: e933 713d 83b7 d3be 811f fdbc 56de 38be
00000200: 97fb dc3e 1e0f b33e 4c4e aabd d115 953d
00000210: 56d7 183d 92fa 23bf 946a b0bd 6869 9a3d
00000220: 24cb f13e f42b bb3e a3b3 69bc a016 133c
00000230: 9b58 bebd 9396 2ebf 09a7 dabc f6ba cc3c
00000240: 8f9d 0e3d 7788 57bf bdc7 733c f7da 8abe
00000250: 4d1c 0f3c 8df1 33be a40e 54bb f502 5bbe
00000260: 063f b33e 5711 49bf 7832 833d f044 b23d
00000270: cc8c c1bd 8a3a 01be 2628 593c 607d a83d
00000280: c899 3b3f eee0 3cbf d121 b3bb a5d0 f7bc
00000290: 5b3c 1f3d 5be1 a5bd 1275 913c fa63 a3bc
000002a0: f01e 8f3e d1bb 86be e381 8abd 3962 0fbe
000002b0: 61ca 96bc 752a 59be 4c6c dabc dc13 18be
000002c0: cbf0 a73e e83d 58be 6586 57bd 4d71 913d
000002d0: 8f1d 1b3c 8eca cebd 21ea bebd 06b5 5c3d
000002e0: d4cf b03e 458b febd 3911 6dbc 4f5d a53e
000002f0: 0a2e adbd c06d dcbd a09f 08bd 4a96 a43e
00000300: 0d03 e9bc 3491 9ebe 3330 5a3d cf00 863c
00000310: 16de 4e3e 642d f73e f1f5 aebc 0307 833d
00000320: fc66 3a3e 81a2 16be 8021 e7ba dcdc 3e3d
00000330: 8065 28be e475 073e 56a4 063c 244a f93d
00000340: 723f aa3e 88c2 933d d719 f73c 3d2c 493d
00000350: c083 23bf e55b 37bd f1cb 0238 8564 663d
00000360: 6138 6ebd 41ed 0c3f e562 ff3c 4dbc 12bd
00000370: 97da 56be 7d20 ea3e aa0b e8bc ca09 9e3b
00000380: 99f5 e5bc 8660 463f 7003 9b3c 7ac7 5cb9
00000390: 2f24 053e c684 fe3d ba39 afbc 21de 86bd
000003a0: b531 373e f563 4e3f 6264 03bd 9cd9 9bbd
000003b0: 13f3 243f d265 00be 5c3f 7a3c d373 82bd
000003c0: 067a 813e 5477 e43d afc7 d33c 1aa8 593e
000003d0: a143 413d 8cdb 17be 3e0a 443c 1074 033e
000003e0: e881 a43e 8914 253e a982 43bc 8356 dcbd
000003f0: 96d9 7e3b 0601 c4be e29a 05bc 886b 20be

fcs1.bias f4 [400]
-0.25042507 -0.46182987 -0.5090486 -0.5069358 -0.30311477 -0.12808232 0.4764449 -0.57708913
-0.7758423 -0.49842432 0.02800346 -0.34010595 -0.87472856 -0.5344279 -0.106835745 -0.6100495
0.13531643 -0.072017096 -0.7404371 -0.5234363 0.11509836 -0.3157294 -0.6254729 -0.35954767
-0.15325487 -0.40026307 -0.6448922 -0.3258577 -0.45663387 -0.39764175 -0.34651446 0.15594296
-0.5664048 -0.17140588 -0.11304767 -0.44673792 -0.34503594 -0.48706862 -0.62648684 -0.44125417
-0.68443567 -0.40405497 -0.34136167 -0.6175482 -0.32213807 -0.16268651 -0.31876954 -0.09940152
-0.77316254 -0.10075646 -0.5555275 -0.6776203 -0.12422707 -0.5206144 -0.69272745 -0.14175312
-0.39153057 -0.44084108 -0.28631446 -0.45467454 0.8897892 -0.47170886 -0.3846644 -0.47799844
-0.6943029 -0.5491595 -0.61473435 -0.39424166 -0.30311775 -0.32499984 -0.74313766 -0.17679907
-0.33376613 -0.44578522 -0.23558891 -0.3680325 -0.73360187 -0.4470351 -0.6589892 -0.36492246
0.4311416 0.13359141 -0.76770324 -0.4979413 -0.11428056 -0.462378 -0.17293479 -0.8122249
0.11345703 0.062104795 -0.44016066 -0.59944385 0.13080522 -0.854262 -0.60575926 -0.4020031
-0.44837475 -0.51505834 -0.45910442 -0.39967933 -0.45823827 -0.557148 -0.32382357 -0.6304016
-0.57857037 -0.5270933 0.40124324 -0.41916913 -0.5929324 0.71026284 -0.26593548 0.24496609
-0.31798977 -0.4905222 -0.33830738 -0.54602796 -0.7279215 0.1866002 -0.46268123 -0.11677907
-0.34766212 -0.40050864 -0.02349564 -0.14297444 0.14415994 -0.49832842 -0.032641646 -0.41111243
0.30180982 0.2572816 -0.666773 -0.2080728 0.16414496 -0.52105224 -0.2185999 -0.34540647
-0.48562607 -0.2706444 -0.10229668 0.33916125 -0.57871574 -0.25532016 -0.37658215 -0.49403983
0.45773056 -0.084761195 -0.36767134 -0.109992 -0.7015319 0.15773238 -0.26275402 -0.559409
-0.48096886 -0.5809876 -0.4532252 -0.7074134 -0.18652405 -0.22361316 -0.2790212 -0.43281284
-0.102310695 -0.4742724 -0.2992908 -0.30026564 0.009531632 -0.542679 -0.46908155 0.014655745
-0.67036647 -0.46244478 -0.0062614633 -0.29839274 0.12762648 -0.212729 -0.4480168 -0.5793883
-0.5426628 -0.4855068 -0.38346928 -0.16588755 0.13814178 -0.6618328 -0.297945 -0.3411655
0.103428 -0.40520477 -0.38658124 -0.49980325 -0.12053904 -0.16998234 -0.28167638 -0.106393486
-0.21344885 -0.33859956 -0.43526837 0.25875854 -0.39424714 -0.4506628 -0.03799479 -0.8373127
0.44382977 -0.33201894 -0.36118495 -0.20664026 -0.16566227 -0.30798733 -0.38628 -0.24376763
-0.39761224 -0.27395535 -0.23664124 -0.17173736 -0.2923557 -0.27661166 -0.39153898 -0.40019277
-0.22450246 -0.6458817 -0.49278018 -0.07264323 -0.32588014 -0.45550355 -0.5180411 -0.77268076
-0.10057132 0.010380429 -0.32843995 -0.27864766 -0.3601821 -0.013157086 -0.5765044 -0.15997316
-0.45522776 -0.46881104 0.39514035 -0.6678504 -0.68718636 -0.26140937 -0.080118984 -0.22982496
-0.30333662 0.23822153 -0.46493575 -0.41942653 -0.18465725 -0.6316082 -0.38732415 -0.46286815
-0.3240897 -0.5449417 -0.5783283 -0.28512374 -0.10625522 -0.003170634 -0.5236563 -0.27957568
00000000: b737 80be f774 ecbe 0251 02bf 8bc6 01bf
00000010: dc31 9bbe 0328 03be 96f0 f33e 1dbc 13bf
00000020: 9a9d 46bf 7931 ffbe 8367 e53c 5e22 aebe
00000030: 36ee 5fbf 44d0 08bf b3cc dabd 342c 1cbf
00000040: 6490 0a3e b37d 93bd 498d 3dbf ecff 05bf
00000050: b0b8 eb3d 49a7 a1be fe1e 20bf a216 b8be
00000060: d8ee 1cbe 48ef ccbe a817 25bf d2d6 a6be
00000070: eacb e9be b397 cbbe 586a b1be 83af 1f3e
00000080: e8ff 10bf 0685 2fbe 8985 e7bd d5ba e4be
00000090: 8da8 b0be 0f61 f9be 7161 20bf 11ec e1be
000000a0: 2d37 2fbf 4be0 cebe f5c6 aebe a417 1ebf
000000b0: 48ef a4be 4b97 26be c335 a3be 0693 cbbd
000000c0: fbed 45bf 6759 cebd 0d37 0ebf 8678 2dbf
000000d0: c36a febd fc46 05bf 9656 31bf bb27 11be
000000e0: b276 c8be ecb5 e1be cf97 92be 1acb e8be
000000f0: 3ac9 633f d383 f1be bbf2 c4be 36bc f4be
00000100: d6bd 31bf b895 0cbf 3b5f 1dbf 0bda c9be
00000110: 4032 9bbe 6166 a6be 453e 3ebf d10a 35be
00000120: 65e3 aabe f63d e4be 383e 71be c16e bcbe
00000130: 55cd 3bbf c9e1 e4be 84b3 28bf 1ed7 babe
00000140: 97be dc3e 30cc 083e 3388 44bf 29f2 febe
00000150: ed0b eabd cfbc ecbe d115 31be f9ed 4fbf
00000160: 295c e83d 9961 7e3d bd5c e1be 2775 19bf
00000170: cef1 053e eab0 5abf 0a13 1bbf 5ad3 cdbe
00000180: 6091 e5be ddda 03bf bc0f ebbe c5a2 ccbe
00000190: 359e eabe 40a1 0ebf 34cc a5be 0062 21bf
000001a0: 301d 14bf 96ef 06bf c16f cd3e 569d d6be
000001b0: 6bca 17bf c9d3 353f b228 88be 64d8 7a3e
000001c0: 8ecf a2be ba25 fbbe a036 adbe 7dc8 0bbf
000001d0: 1059 3abf 1f14 3f3e 8ee4 ecbe dd29 efbd
000001e0: c500 b2be 780f cdbe ee79 c0bc e467 12be
000001f0: aa9e 133e e724 ffbe 3fb3 05bd 547d d2be
00000200: d186 9a3e 6aba 833e a3b1 2abf 0911 55be
00000210: 9e15 283e ae63 05bf a7d8 5fbe 1ed9 b0be
00000220: fba3 f8be e791 8abe ec80 d1bd 8ba6 ad3e
00000230: b726 14bf 53b9 82be 60cf c0be caf2 fcbe
00000240: a95b ea3e 4797 adbd 6b3f bcbe 7c43 e1bd
00000250: 9897 33bf 9984 213e b287 86be 6e35 0fbf
00000260: 8d41 f6be 9abb 14bf 220d e8be 0b19 35bf
00000270: 2900 3fbe d9fa 64be dedb 8ebe a599 ddbe
00000280: 4588 d1bd d5d3 f2be a53c 99be 6bbc 99be
00000290: 902a 1c3c 03ed 0abf 752b f0be a61e 703c
000002a0: 239d 2bbf 90c5 ecbe f62c cdbb efc6 98be
000002b0: 84b0 023e a2d5 59be 7562 e5be cb52 14bf
000002c0: f3eb 0abf 5994 f8be 1656 c4be 6dde 29be
000002d0: 0a75 0d3e e06d 29bf 3f8c 98be 3fad aebe
000002e0: 0fd2 d33d 0077 cfbe faed c5be 36e6 ffbe
000002f0: 2cdd f6bd da0f 2ebe e337 90be d4e4 d9bd
00000300: 5692 5abe ec5c adbe 7fdb debe 007c 843e
00000310: c3da c9be 46bd e6be 6da0 1bbd 205a 56bf
00000320: a83d e33e 63fe a9be 3ced b8be 8199 53be
00000330: 5fa3 29be 84b0 9dbe 7ec6 c5be 399e 79be
00000340: d593 cbbe e043 8cbe 1552 72be ebdb 2fbe
00000350: a5af 95be 0ba0 8dbe cc77 c8be 11e6 ccbe
00000360: f9e3 65be 8158 25bf af4d fcbe f9c5 94bd
00000370: c3d9 a6be c337 e9be 579e 04bf 68ce 45bf
00000380: 56f8 cdbd ad12 2a3c 4829 a8be e8aa 8ebe
00000390: ca69 b8be d290 57bc cb95 13bf 01d0 23be
000003a0: 9d13 e9be 0008 f0be d64f ca3e 3ef8 2abf
000003b0: 72eb 2fbf 73d7 85be 6c15 a4bd 3c57 6bbe
000003c0: f04e 9bbe 58f0 733e 0f0c eebe 13bf d6be
000003d0: ca16 3dbe 13b1 21bf 5a4f c6be 0efd ecbe
000003e0: 16ef a5be 4d81 0bbf 530d 14bf bdfb 91be
000003f0: 569c d9bd 69ca 4fbb 570e 06bf 8b24 8fbe

fc2.weight f4 [300, 404]
0.03890619 -0.13823731 -0.018450502 0.014193279 -0.09737944 0.024303287 -0.35212693 -0.08591969
-0.13784204 -0.12513104 -0.18918696 0.023495378 0.001281788 -0.05891608 -0.09620744 -0.071792
0.12106287 -0.01801908 -0.043842845 0.035226278 0.038536232 -0.07276101 0.048932094 -0.112154335
-0.06965436 -0.33128005 0.044530675 -0.09737806 -0.02244654 0.011712005 -0.0745933 0.07060127
-0.045061916 -0.23015955 0.064491704 -0.06736255 -0.058828507 0.004345042 0.04354274 -0.00053803076
-0.068534404 0.07369401 -0.024323493 -0.014590362 0.012159974 -0.19071539 -0.1667237 -0.042937696
-0.15080711 -0.10672314 -0.22444364 -0.22614704 -0.0364176 -0.06694894 0.04245266 -0.25777283
-0.014327919 0.026598623 -0.12465212 0.019100267 -0.1801091 0.0011457461 -0.060046542 -0.16989452
-0.18914692 -0.022090495 -0.050204787 0.074764475 -0.050666533 0.0040987423 0.042518616 0.0030770686
0.01493606 0.024071688 -0.06082112 -0.01730468 -0.12552418 -0.13865952 -0.013699896 0.06345684
-0.26748106 -0.3920406 0.007998958 -0.07223367 -0.06626727 -0.06861637 -0.08277823 -0.33627474
-0.14101177 -0.02782827 -0.056275237 0.022484291 -0.0038569458 -0.120607175 -0.06091548 -0.117366016
0.03743516 -0.060229465 0.057525165 -0.059808534 -0.028786318 0.023678856 -0.050012264 -0.07328244
-0.046585366 -0.30562568 -0.17937206 -0.08232229 -0.19571523 -0.23027116 -0.009545931 -0.050604776
-0.20794931 0.018640729 -0.13263123 0.02450661 -0.050061613 0.018634204 -0.05520808 0.007105493
0.02406848 -0.11373253 -0.07806598 0.044379927 -0.14433925 -0.07292617 -0.15345298 -0.0044678687
-0.06645617 -0.14390576 -0.13599642 0.059287984 0.070735864 -0.036163516 -0.07473306 -4.9461087e-05
-0.081608355 -0.09327737 -0.1472855 -0.15059713 0.011435512 0.0026529091 -0.021772744 -0.012661845
-0.019450286 -0.046926517 -0.04540496 -0.059383955 0.0095768 -0.1327809 0.0051416303 -0.00748171
0.04113296 -0.3648917 -0.116936535 -0.040008552 -0.04436213 0.016600007 -0.10875263 -0.06870403
-0.030506024 0.03203716 0.035822716 -0.02178703 0.09593939 0.012671374 -0.0052514286 -0.06421946
-0.0338723 -0.08204704 0.016801955 0.037367776 0.026190082 -0.02367328 -0.031515583 -0.038010757
-0.090435535 -0.06989841 0.019146383 -0.022681786 -0.20487228 -0.17315453 -0.06591764 -0.2137675
-0.06120024 -0.087072164 0.008663548 -0.0004668224 0.01739785 -0.01743627 -0.027396375 0.007862283
-0.056062736 -0.049244076 -0.06017898 -0.24787849 0.014562811 0.046051323 -0.18807219 -0.59490174
-0.071441434 -0.08424668 -0.02636857 0.04503926 -0.06810863 -0.03733707 -0.016603982 -0.02448596
0.031430334 0.027547352 0.009357987 -0.04616732 -0.066584826 -0.028407432 0.04161533 -0.052213464
0.0068647144 0.01442452 -0.10374447 -0.02924359 -0.06035227 -0.033416696 -0.022721035 -0.023074191
-0.026702382 -0.03752619 -0.0046401205 0.0295523 -0.007510738 -0.123750485 0.0016888491 -0.1304317
0.047707677 -0.41940194 -0.06467032 -0.23626593 -0.07710063 -0.08187567 -0.012497491 -0.0009281856
-0.23730244 -0.040237725 0.027817411 0.050659895 -0.113834634 -0.1642242 -0.09390243 -0.005535421
-0.012085784 -0.06429613 -0.075521655 -0.11099761 0.032197352 -0.18353294 -0.1805251 -0.12941365
00000000: 195c 1f3d 158e 0dbe 8225 97bc ed8a 683c
00000010: df6e c7bd b017 c73c fb49 b4be aaf6 afbd
00000020: 7726 0dbe 5a22 00be 3aba 41be 6179 c03c
00000030: ab01 a83a fd51 71bd 6808 c5bd af07 93bd
00000040: cfef f73d c09c 93bc 8e94 33bd 6e49 103d
00000050: 2bd8 1d3d b903 95bd 056d 483d 2cb1 e5bd
00000060: f2a6 8ebd 8a9d a9be cc65 363d 266e c7bd
00000070: cee1 b7bc b6e3 3f3c 5fc4 98bd 6697 903d
00000080: d892 38bd f2ae 6bbe 3a14 843d 60f5 89bd
00000090: 29f6 70bd db60 8e3b df59 323d a20a 0dba
000000a0: c45b 8cbd e3ec 963d 1042 c7bc 6a0c 6fbc
000000b0: a13a 473c e54a 43be 9eb9 2abe 70df 2fbd
000000c0: 2e6d 1abe a991 dabd 8ed4 65be 1793 67be
000000d0: 9f2a 15bd 871c 89bd d7e2 2d3d cdfa 83be
000000e0: a6bf 6abc 5be5 d93c 9c49 ffbd 2a78 9c3c
000000f0: 856e 38be dc2c 963a 5df3 75bd d4f8 2dbe
00000100: bbaf 41be 20f7 b4bc 89a3 4dbd 1e1e 993d
00000110: b687 4fbd be4e 863b 0028 2e3d a5a8 493b
00000120: 60b6 743c fd31 c53c 911f 79bd 8bc2 8dbc
00000130: 6989 00be c3fc 0dbe 8775 60bc a9f5 813d
00000140: 47f3 88be 8cb9 c8be 100e 033c 3fef 93bd
00000150: 22b7 87bd bd86 8cbd a287 a9bd 342c acbe
00000160: 6465 10be 1df8 e3bc dd80 66bd fa30 b83c
00000170: d0c4 7cbb e500 f7bd 8382 79bd 985d f0bd
00000180: 9c55 193d 2cb3 76bd 829f 6b3d cbf9 74bd
00000190: 49d1 ebbc 29fa c13c a9d9 4cbd 1b15 96bd
000001a0: 4cd0 3ebd f87a 9cbe 4fad 37be 9798 a8bd
000001b0: 9369 48be 34cc 6bbe 8966 1cbc f446 4fbd
000001c0: aaf0 54be 71b4 983c 7bd0 07be 16c2 c83c
000001d0: 680d 4dbd c2a6 983c de21 62bd 32d5 e83b
000001e0: 432b c53c 9aec e8bd 0ee1 9fbd bac7 353d
000001f0: abcd 13be 515a 95bd c722 1dbe 3367 92bb
00000200: 2c1a 88bd 085c 13be a542 0bbe f5d7 723d
00000210: f7dd 903d 3220 14bd a60d 99bd 7074 4fb8
00000220: 4822 a7bd 3508 bfbd 03d2 16be 2236 1abe
00000230: 045c 3b3c 6edc 2d3b c15c b2bc a173 4fbc
00000240: 3556 9fbc 0536 40bd 8dfa 39bd 973c 73bd
00000250: 03e8 1c3c b7f7 07be 1f7b a83b 2229 f5bb
00000260: 097b 283d 16d3 babe 6c7c efbd 02e0 23bd
00000270: 11b5 35bd bdfc 873c b3b9 debd b3b4 8cbd
00000280: c5e7 f9bc 6639 033d d7ba 123d b77a b2bc
00000290: df7b c43d 989b 4f3c 2d14 acbb 7e85 83bd
000002a0: aebd 0abd 4708 a8bd 41a4 893c f40e 193d
000002b0: 958c d63c 77ee c1bc 7c16 01bd 2bb1 1bbd
000002c0: 4436 b9bd e626 8fbd e0d8 9c3c 27cf b9bc
000002d0: 0aca 51be 6c4f 31be d4ff 86bd dee5 5abe
000002e0: 1aad 7abd e452 b2bd 8ef1 0d3c d8bf f4b9
000002f0: f085 8e3c 82d6 8ebc 5d6e e0bc ced0 003c
00000300: 0aa2 65bd 28b4 49bd 3c7e 76bd dcd3 7dbe
00000310: db98 6e3c 50a0 3c3d ff95 40be 7b4b 18bf
00000320: e34f 92bd 8689 acbd e602 d8bc 167b 383d
00000330: 8a7c 8bbd c1ee 18bd 1305 88bc c896 c8bc
00000340: 18bd 003d fcaa e13c 3e52 193c f219 3dbd
00000350: a05d 88bd b4b6 e8bc d674 2a3d c9dd 55bd
00000360: 66f1 e03b d254 6c3c fb77 d4bd 4190 efbc
00000370: f133 77bd f2df 08bd 7721 babc 1606 bdbc
00000380: f4be dabc 10b5 19bd 270c 98bb aa17 f23c
00000390: a31c f6bb e570 fdbd 5f5c dd3a e38f 05be
000003a0: 2069 433d dabb d6be df71 84bd b2ef 71be
000003b0: efe6 9dbd 6eae a7bd 47c2 4cbc 7b51 73ba
000003c0: 69ff 72be 50d0 24bd 57e1 e33c c080 4f3d
000003d0: 2222 e9bd 642a 28be eb4f c0bd 7a62 b5bb
000003e0: 7403 46bc b0ad 83bd 19ab 9abd b752 e3bd
000003f0: 5fe1 033d 0ff0 3bbe 92db 38be 0385 04be

fc2.bias f4 [300]
-0.10391232 -0.25334403 -0.14236277 -0.11061274 -0.12447006 -0.11398935 -0.14573056 -0.06615087
-0.109634496 -0.13160282 -0.09382646 -0.10813876 -0.07659794 -0.114918485 -0.19171686 -0.028627127
-0.04302483 -0.06934057 -0.10360902 -0.1288376 -0.13238226 -0.08582389 -0.09419691 -0.11752607
-0.107962444 -0.11661767 -0.20780955 -0.11021373 -0.083824866 -0.020319358 -0.0831624 -0.08080899
-0.08443297 -0.14005691 -0.47730184 -0.114629455 -0.2069215 -0.10427762 -0.058832355 -0.37458524
-0.12781925 -0.042383872 -0.04179634 -0.12907343 -0.1333769 -0.0600896 -0.13749082 -0.02352946
-0.14955488 -0.13151412 -0.09105502 -0.08863643 -0.115344435 -0.6349434 -0.07325238 0.39830148
-0.09586159 -0.07253812 -0.08345212 0.29362354 -0.18331032 -0.4601816 -0.07803925 -0.14778449
-0.11540718 -0.050946936 -0.013101694 0.060928516 -0.09137137 -0.057413977 -0.07711908 -0.055867013
-0.2478386 -0.11125868 -0.029719511 -0.055932567 -0.09521732 -0.12101335 -0.099772125 -0.11536057
-0.08297705 -0.1182166 -0.05912044 -0.0926686 -0.085233174 -0.116434276 -0.072038755 -0.02120182
-0.121094786 -0.09742697 -0.07466661 -0.047642123 -0.100406125 -0.13274808 -0.12838182 -0.10440029
-0.11499637 -0.13503852 -0.0848986 -0.026478168 -0.042715147 -0.1418267 -0.08887585 -0.08429567
-0.014219435 -0.36314967 -0.014677389 -0.08097392 -0.13586934 -0.248767 -0.06469752 -0.12016123
-0.08556941 -0.070863284 -0.12692496 -0.06970382 -0.09247738 -0.050609924 -0.12244108 -0.18848301
0.31183168 -0.19092892 -0.15920915 0.075972304 -0.1460833 -0.059978034 -0.04632807 -0.11377035
-0.10378672 -0.082595326 -0.08228698 -0.042173207 -0.11026886 -0.09342584 -0.12606898 -0.104989596
-0.04377833 -0.13710032 -0.092770256 -0.07971462 -0.15672311 -0.29163095 0.7352548 -0.026235512
-0.072317995 -0.10054832 -0.099079624 -0.07742627 -0.11807288 -0.07673383 -0.083255276 -0.110211425
-0.100648925 -0.091068186 -0.28959745 -0.08846817 -0.10877172 -0.11737289 -0.12146433 -0.15971632
-0.100597866 -0.11410167 -0.09647615 -0.1243537 -0.14982879 -0.052899167 -0.11391634 -0.06304319
-0.113525346 -0.024120739 -0.0423977 -0.05222886 -0.097242266 -0.12130466 -0.04722221 -0.12980242
-0.08845492 -0.08965856 -0.12319024 -0.07981172 -0.08471579 -0.111959204 -0.10094188 -0.025415119
-0.018548455 -0.14561892 0.7417285 -0.08931801 -0.41706946 -0.03709335 -0.088364825 -0.3558144
-0.3186517 -0.036954556 -0.10457134 -0.10085768 -0.099616215 -0.14022852 -0.08342497 -0.09383105
-0.18062136 -0.14982331 -0.0648938 -0.035388213 -0.024383945 -0.080444455 -0.031342905 -0.069997005
-0.083032176 -0.054817207 0.26811746 -0.090495095 -0.1587429 -0.05023412 -0.24136291 -0.08362014
-0.021615941 -0.033148922 -0.08709634 0.22373582 -0.11163766 -0.0810849 -0.0007275277 -0.06020663
-0.12567711 -0.04145891 -0.30532193 -0.11183589 -0.12986164 -0.0356176 -0.11593609 -0.11314253
-0.0831108 -0.052532725 -0.022967251 -0.079119 0.2913086 -0.078220144 -0.11879333 -0.13008015
-0.059843097 -0.06001705 -0.097220905 -0.14030153 -0.08035019 -0.17394866 -0.12663853 -0.0986754
-0.078615844 -0.18808503 0.13356538 1.4550159 -0.107369095 -0.071088366 -0.061967213 -0.1330125
00000000: fccf d4bd 4fb6 81be 8cc7 11be ef88 e2bd
00000010: 29ea febd 4073 e9bd 643a 15be 1b7a 87bd
00000020: 0d88 e0bd e4c2 06be 1628 c0bd db77 ddbd
00000030: 61df 9cbd 625a ebbd 6d51 44be 7083 eabc
00000040: ce3a 30bd 6e02 8ebd f730 d4bd 01ee 03be
00000050: 378f 07be 70c4 afbd 4fea c0bd 82b1 f0bd
00000060: 6a1b ddbd 3fd5 eebd 07cc 54be bcb7 e1bd
00000070: 5fac abbd c874 a6bc 0c51 aabd 2f7f a5bd
00000080: 31eb acbd 146b 0fbe e860 f4be d9c2 eabd
00000090: 3be3 53be 818f d5bd 32fa 70bd a3c9 bfbe
000000a0: 0de3 02be b69a 2dbd a432 2bbd d32b 04be
000000b0: f493 08be 8320 76bd 65ca 0cbe dbc0 c0bc
000000c0: ea24 19be a3ab 06be 0e7b babd 0487 b5bd
000000d0: b439 ecbd a78b 22bf 5805 96bd 2cee cb3e
000000e0: 1553 c4bd de8e 94bd f2e8 aabd d355 963e
000000f0: b3b5 3bbe ec9c ebbe 0bd3 9fbd d154 17be
00000100: 995a ecbd bcad 50bd 7da8 56bc 2e90 793d
00000110: ea20 bbbd eb2a 6bbd 9cf0 9dbd cfd4 64bd
00000120: 67c9 7dbe 97db e3bd 5576 f3bc 8c19 65bd
00000130: 4c01 c3bd d9d5 f7bd 5455 ccbd 2a42 ecbd
00000140: dfef a9bd 8b1b f2bd 4628 72bd 09c9 bdbd
00000150: bb8e aebd 1875 eebd 0e89 93bd 70af adbc
00000160: 8b00 f8bd cb87 c7bd cfea 98bd 6324 43bd
00000170: baa1 cdbd 1def 07be 8676 03be d2cf d5bd
00000180: 3883 ebbd 8a47 0abe 51df adbd bee8 d8bc
00000190: 14f6 2ebd 053b 11be 8b04 b6bd 35a3 acbd
000001a0: a2f8 68bc c1ee b9be 6e79 70bc a8d5 a5bd
000001b0: 5521 0bbe c7bc 7ebe 2280 84bd 1717 f6bd
000001c0: 043f afbd c520 91bd 9ef8 01be e0c0 8ebd
000001d0: c864 bdbd 5a4c 4fbd 64c2 fabd b101 41be
000001e0: 67a8 9f3e df82 43be b907 23be 5e97 9b3d
000001f0: dc96 15be 87ab 75bd 81c2 3dbd 6e00 e9bd
00000200: 228e d4bd bd27 a9bd 1386 a8bd d0bd 2cbd
00000210: a4d4 e1bd 0c56 bfbd 3a18 01be c904 d7bd
00000220: e850 33bd 0764 0cbe 55fe bdbd 6b41 a3bd
00000230: 067c 20be a750 95be a939 3c3f dbeb d6bc
00000240: 751b 94bd 47ec cdbd 42ea cabd aa91 9ebd
00000250: 32d0 f1bd a026 9dbd be81 aabd 87b6 e1bd
00000260: 0621 cebd f581 babd 1e46 94be cd2e b5bd
00000270: b5c3 debd 3361 f0bd 4ac2 f8bd ad8c 23be
00000280: 4106 cebd 23ae e9bd 4a95 c5bd 27ad febd
00000290: b86c 19be ccac 58bd f84c e9bd ca1c 81bd
000002a0: fa7f e8bd db98 c5bc 36a9 2dbd eeed 55bd
000002b0: f426 c7bd 946e f8bd 136c 41bd edea 04be
000002c0: da27 b5bd e89e b7bd 2a4b fcbd 5474 a3bd
000002d0: 797f adbd de4a e5bd 9eba cebd 5e33 d0bc
000002e0: eef2 97bc 201d 15be ebe1 3d3f 5cec b6bd
000002f0: 218a d5be 32ef 17bd 9ef8 b4bd 4e2d b6be
00000300: 5126 a3be a95d 17bd 8029 d6bd 798e cebd
00000310: 9603 ccbd 1198 0fbe b6da aabd 7e2a c0bd
00000320: cef4 38be 486b 19be 0ae7 84bd 3bf3 10bd
00000330: d7c0 c7bc 10c0 a4bd 6b61 00bd 975a 8fbd
00000340: c60c aabd 0288 60bd b146 893e 7e55 b9bd
00000350: 808d 22be 4bc2 4dbd d727 77be 0941 abbd
00000360: ea13 b1bc 2ac7 07bd 915f b2bd 011b 653e
00000370: 49a2 e4bd d70f a6bd 8fb7 3eba 3a9b 76bd
00000380: 80b1 00be d1d0 29bd 2853 9cbe 370a e5bd
00000390: 73fa 04be c3e3 11bd e76f edbd 45b7 e7bd
000003a0: ff35 aabd 8e2c 57bd d125 bcbc 2409 a2bd
000003b0: 6726 953e e231 a0bd eb49 f3bd bb33 05be
000003c0: 091e 75bd 70d4 75bd c11b c7bd 34ab 0fbe
000003d0: a48e a4bd 991f 32be 88ad 01be 5416 cabd
000003e0: 5801 a1bd 5d99 40be 5dc5 083e f63d ba3f
000003f0: 54e4 dbbd c796 91bd 55d1 7dbd 6e34 08be

fc3.weight f4 [1, 300]
-0.0055057444 -0.027945949 -0.002752594 0.018621815 -0.014168127 0.02408413 -0.0025206453 0.013443759
9.5498595e-05 0.0023465967 -0.019338956 -0.034031007 0.009195158 0.009661857 -0.014460018 0.022966156
-0.005269967 -0.027224982 2.0169364e-05 0.02287958 0.0005458704 -0.016536897 -0.02512184 0.028330639
-0.0045040594 0.0010772642 -0.0077508297 0.013801874 -0.008973102 -0.00079953077 -0.019692197 0.019915957
0.021171805 -0.0077906977 0.010306056 -0.0002836154 -0.025528267 0.0025816336 0.0012640822 -0.01733842
0.0052415365 0.027550198 -0.008493659 0.0028235593 0.020143174 0.030457562 -0.0035722263 -0.020631997
0.004844915 0.019348672 -0.00032350761 -0.0075919107 -0.002346336 -0.016858667 -0.0154859815 -0.008432705
0.013951252 0.019277848 -0.02609641 0.011423186 -0.006083953 0.0048971106 -0.0021889308 -0.016651291
0.0005414196 -0.014091514 -0.020651937 -0.0048514362 0.005921065 0.009756546 -0.023146184 -0.031148845
-0.0056135734 -0.017793005 -0.021850254 -0.00021489733 0.012919865 -0.002157373 0.007894591 -0.0013004716
0.014711228 0.0079609 -0.007881789 -0.028812679 0.012246332 0.008817429 -0.0010067306 0.0033562598
-0.014987724 -0.005578038 -0.0043668933 0.0005737896 -0.028546855 -0.025249342 0.007217897 0.0042354665
-0.015231304 0.027128022 0.01573824 0.016413037 0.017302327 -0.0033350599 0.025307173 -0.018673446
0.022711547 -0.010161103 -0.01133468 0.020542096 -0.011581797 0.020849243 -0.02733391 0.0013487146
-0.026604582 -0.012992598 -0.023449536 -0.009562881 0.029699983 0.030855913 -0.00023579973 0.0029120673
0.006230162 0.023996621 0.007163026 -0.005390275 -0.010913046 -0.009668571 -0.021209069 0.029185317
-0.0039276993 -0.0055520046 0.020262428 0.008323313 0.0023668075 -0.0031954814 -0.001985084 0.018696137
-0.002947546 -0.015279692 0.015082208 0.0011065658 -0.014384159 -0.008534055 -0.0046801334 0.022914171
0.029315539 -0.023343934 -0.0035741408 0.00861599 0.008484861 0.030628199 0.031146653 -0.010988768
0.005458196 -0.007632075 0.00501383 -0.02854537 0.0151083935 0.027805012 -0.0026205578 0.022988241
-0.005435798 0.02623943 -0.0006304506 0.014561721 -0.0026942273 0.021194907 0.0059093074 0.02873486
-0.009340787 0.02855267 0.026951343 0.026746567 0.012964243 -0.0064167567 0.012242749 -0.013201978
0.0015860661 -0.036945622 -0.0097212335 0.01411857 0.0206537 -0.024322754 -0.0077493414 -0.0055116103
-0.014390916 0.0033512276 0.01694289 0.008042286 0.007870854 0.00019768163 -0.0038787522 0.013398332
-0.00937521 -0.0210775 0.0002703785 -0.0067204065 0.0033321567 -0.011201237 -0.012433212 0.010823351
-0.028153902 -0.00074305694 0.009372141 -0.017953025 -0.012523609 -0.0033397374 0.011123953 -0.016761681
0.024490898 0.0007937043 -0.0010003493 0.009867589 0.014951636 0.02236456 0.0014905568 -0.00067766086
-0.003871019 -0.004306798 -0.0056037097 -0.008650658 -0.006040722 0.0018049201 0.016305491 -0.012474251
-0.023014097 0.011724359 0.002806098 0.007899231 -0.012746134 0.027025148 0.022711582 -0.007346422
0.008642059 -0.0013332786 -0.006865665 -0.020695126 0.0073076873 -0.008638823 -0.012882415 -0.00928979
0.014342631 0.012036713 -0.015540441 0.0064509558 0.0020108104 -0.0057549863 -0.006443008 0.026110321
-0.014271916 -0.016350709 0.0073828334 0.011144191 -0.0058005317 0.018961584 0.024733167 -0.0015828728
00000000: 8869 b4bb e7ee e4bc dd64 34bb c78c 983c
00000010: 6f21 68bc 154c c53c 6931 25bb 3643 5c3c
00000020: 6b46 c838 5cc9 193b bb6c 9ebc 1964 0bbd
00000030: 4aa7 163c c44c 1e3c b6e9 6cbc 8523 bc3c
00000040: b0af acbb ed06 dfbc 6131 a937 f56d bb3c
00000050: be18 0f3a 6378 87bc 51cc cdbc a815 e83c
00000060: ca96 93bb fd32 8d3a acfa fdbb 4121 623c
00000070: eb03 13bc 9a97 51ba 8851 a1bc ca26 a33c
00000080: 7e70 ad3c 1c49 ffbb bbda 283c 37b2 94b9
00000090: a820 d1bc a030 293b 8faf a53a 4d09 8ebc
000000a0: 32c1 ab3b f4b0 e13c fd28 0bbc 770b 393b
000000b0: 4c03 a53c 2382 f93c 031c 6abb 6f04 a9bc
000000c0: 18c2 9e3b 1b81 9e3c 759c a9b9 90c5 f8bb
000000d0: fcc4 19bb 301b 8abc eab8 7dbc 5429 0abc
000000e0: cb93 643c 94ec 9d3c 23c8 d5bc 5128 3b3c
000000f0: e65b c7bb f177 a03b 2a74 0fbb 4a68 88bc
00000100: 0eee 0d3a 18e0 66bc 402e a9bc ccf8 9ebb
00000110: 7e05 c23b ebd9 1f3c 119d bdbc dd2b ffbc
00000120: 11f2 b7bb a3c2 91bc 4eff b2bc 1056 61b9
00000130: d7ad 533c b662 0dbb 5158 013c 9674 aaba
00000140: 5d07 713c 6f6e 023c 9e22 01bc 9108 ecbc
00000150: d7a4 483c fa76 103c 46f4 83ba b2f4 5b3b
00000160: 128f 75bc f9c7 b6bb 2818 8fbb 5e6a 163a
00000170: 18db e9bc b5d7 cebc 1c84 ec3b abc9 8a3b
00000180: b88c 79bc 963b de3c 7bed 803c a274 863c
00000190: 9cbd 8d3c 0591 5abb fd50 cf3c 0ef9 98bc
000001a0: 910d ba3c c17a 26bc 18b5 39bc e647 a83c
000001b0: 94c1 3dbc 08cc aa3c 5deb dfbc 5ac7 b03a
000001c0: daf1 d9bc e8de 54bc 3e19 c0bc a1ad 1cbc
000001d0: 614d f33c 8ac5 fc3c 0241 77b9 62d8 3e3b
000001e0: 6326 cc3b 9094 c43c d1b7 ea3b e7a0 b0bb
000001f0: a2cc 32bc ed68 1ebc a4be adbc 0c16 ef3c
00000200: eeb3 80bb 97ed b5bb 64fd a53c 815e 083c
00000210: 711c 1b3b 486b 51bb 2f18 02bb a428 993c
00000220: 9e2b 41bb ac57 7abc 5e1b 773c 300a 913a
00000230: 89ab 6bbc 6cd2 0bbc ce5b 99bb 80b6 bb3c
00000240: 2427 f03c c73b bfbc 223c 6abb 152a 0d3c
00000250: 1604 0b3c fde7 fa3c 4427 ff3c 3c0a 34bc
00000260: abda b23b 7c16 fabb 0e4b a43b fbd7 e9bc
00000270: 3289 773c 56c7 e33c aabd 2bbb d651 bc3c
00000280: c71e b2bb 13f4 d63c d344 25ba 4994 6e3c
00000290: a291 30bb f1a0 ad3c dda2 c13b 5e65 eb3c
000002a0: 1a0a 19bc 4ae7 e93c 10c9 dc3c 9e1b db3c
000002b0: fa67 543c a843 d2bb d095 483c 1c4d 58bc
000002c0: 8ce3 cf3a 4b54 17bd cf45 1fbc 9351 673c
000002d0: f331 a93c 8340 c7bc 30ee fdbb bd9a b4bb
000002e0: e0c7 6bbc 45a0 5b3b d1cb 8a3c cbc3 033c
000002f0: c1f4 003c c248 4f39 aa32 7ebb ad84 5b3c
00000300: 7b9a 19bc b9aa acbc 97c1 8d39 db36 dcbb
00000310: 5060 5a3b 6585 37bc acb4 4bbc 6d54 313c
00000320: 03a3 e6bc b5c9 42ba 9c8d 193c 3912 93bc
00000330: d32f 4dbc 7fdf 5abb 3e41 363c cb4f 89bc
00000340: 23a1 c83c 9810 503a 271e 83ba abab 213c
00000350: b5f7 743c e235 b73c c95e c33a 0da5 31ba
00000360: ecb0 7dbb 0a20 8dbb 539f b7bb 7dbb 0dbc
00000370: 40f1 c5bb 1293 ec3a 1893 853c cd60 4cbc
00000380: 0f88 bcbc 8717 403c 83e6 373b c76b 013c
00000390: 29d5 50bc d863 dd3c a40d ba3c 41ba f0bb
000003a0: 6c97 0d3c 68c1 aeba 5ff9 e0bb d388 a9bc
000003b0: 5375 ef3b da89 0dbc c410 53bc 3434 18bc
000003c0: 5bfd 6a3c a235 453c 559d 7ebc 8a62 d33b
000003d0: cdc7 033b 5394 bcbb de1f d3bb 50e5 d53c
000003e0: c1d4 69bc ecf1 85bc b2eb f13b 2096 363c
000003f0: 6312 bebb 5355 9b3c 369d ca3c 6678 cfba
