data/checkpoint.actor1.pth (torch_old, 563105 bytes, 6 tensors)

fc1.weight f4 [400, 48]
00000000: 7f9d 1b3d bff0 94bc 1a1c 2abd eb81 b53d
00000010: 49a9 933b 8571 2dbc 3300 043d 271e 003d
00000020: 6a22 863d 3d90 e6bc cf96 7bbb c258 023e
00000030: bb90 a9bc ea5b 3d3c a32d d4bc 492f 203d
00000040: 0c92 483d 6941 333d 2e67 673b 5c4c f1bc
00000050: 0237 273d 0600 0f3d 7e98 473d c4f1 2ebd
00000060: 70c3 7f3d 5b4b cb3c e5d7 183d ff32 ab3d
00000070: 551a d33a 48c6 4ebd 71ce a63c 5d97 a93d
00000080: 2536 6c3d 6d3c bb3c 4131 8c3d a2e7 e6bc
00000090: 60ed c93c 7542 19bd 336b 833d bab2 d4bc
000000a0: 85a7 fc3d 0529 08bc 0245 26bd 4ae1 93bd
000000b0: d1fc 8abd 459d 9c3c 1ebe 903c 8f9d 83bd
000000c0: 88f3 43bb b6bb c43d 9665 373c fbbf 46bd
000000d0: 3009 29be eb51 6d3d 9c49 b83c 7d93 39bd
000000e0: bad7 4dbd 5b63 eb3d a2d9 abbd 404d 46bd
000000f0: aa43 debd d9c1 49bc e795 e8bd 96a4 28bd
00000100: 79c6 013d c833 5a3e a8ca 553d 5c53 383d
00000110: 4e3c 503c 9a95 f2bd e293 fe3c c960 7c3d
00000120: 87f2 a33d a63c 0ebd 702a b03d 946b 833d
00000130: 62df 263e bbe7 513d 5380 283c 9d53 883d
00000140: ec52 aa3d d7d1 1fbb c577 073d a57f 373c
00000150: 658e a53d f25d 7e3c f89e d5bc f111 66bc
00000160: f75d 6a3c 42fa c03c a16c 27bd 6831 243d
00000170: 720a 7a3c ea21 d5bd 1639 2abd 1e59 793d
00000180: e6d5 babb 768d 893d 35e7 873c e21d 15bd
00000190: 2f44 4ebc fca9 84bd b627 f1bc d68d 85bc
000001a0: 77b3 5b3d 09ae 7b3d a514 b3bd 4a3b 0d3c
000001b0: 60e2 be3c 70a5 a93c aefb 08be b588 5dbc
000001c0: dab4 df3a 2a1d 393d 80b5 f2bc f91d 643d
000001d0: a5d0 353d 3548 0e3c 7c48 03bd be97 983d
000001e0: deeb 413d dde8 f8bd c12d a63c 3780 77bc
000001f0: 73f1 903c df2d 223b d83a 20bd e9b4 eabc
00000200: 6df1 c0bc 9e1b 54bd 3b12 b43c 1191 643c
00000210: d1f9 8bbc 327d ac3b 2de1 25bc 8127 b93d
00000220: 0874 403c bc3a f1bd b49c 79bc 549a a83c
00000230: a3fd c739 9b2d 5aba 99b6 7cbc ce79 5b3d
00000240: ebdb e5bc 0736 00be 1b7d 76bc 98ca 303d
00000250: d6e5 933d 888e b7bc 3551 2fbd 593a 5abd
00000260: 9f6c 1bbd f827 f7bd 316d e33c a4de afbb
00000270: eaad 9f3d d36d 743a 9fa6 60bc 16c7 17bb
00000280: 344b 31bd ea2b fabd 4535 9b3c cc81 55bd
00000290: b1c1 8a3d 7459 0a3d 876a 00bd bb9e 7e3b
000002a0: 8d48 503d d349 cdbd 6075 c03b 6abf 01be
000002b0: 2d05 39bc 8c90 9d3a 0d04 5bbd 6f57 24be
000002c0: 8917 083d b5b7 69bd 5c28 43bc 55bd f9bd
000002d0: 5ac2 babc c27a 2e3c 98ec 08bc dbb6 58bd
000002e0: ab15 8d3c 391e 24be c713 8fbc 91ef c7bd
000002f0: d111 23bd 7ec5 683d 561c 753d 0767 b8bd
00000300: 0cb6 993c 7ee2 dfbc 827f 23bd 9af0 9a3d
00000310: 4812 8fbc d1db d5bd 7f13 d5bc 63ac d63d
00000320: 29d9 d43b 8c2c 673c c1cb 15bd da38 8b3d
00000330: 6968 423b 32e0 5c3d eaae 9fbc ad07 df3c
00000340: 22b6 5ebd b8f9 84bd c412 bdbc d9cc 093d
00000350: 38b0 08be c767 c13d 25af 62b9 72fb 083d
00000360: 3e0a 923d d2b8 973d d740 263c 9a14 d3bd
00000370: dcff 03bd bc76 9fbd ce7f 82bb 1450 9dbd
00000380: da25 2ebc 8fc9 fd3c 49e5 d63c 5c57 243a
00000390: ec0a db3c b99f 71bc bbed b43b faf9 bbbd
000003a0: 0a4b a63b dc14 bebc cefd 04bd 7ade 29bc
000003b0: 7ea0 c93d 0fca 7a3d d947 ddbc 2f5e 463c
000003c0: c886 61bc 1708 153c 4aa9 2b3a 73a0 02bd
000003d0: aa10 6bbd cefd 193c 5f2d 703d ccb8 833a
000003e0: f979 afbc 9ffb 373d 45d3 833c 8cfe 663c
000003f0: caa7 c73c c06d 363d fe0f 7c3b 0bb0 8a3c
0.037991997 -0.018181203 -0.041530706 0.088626705 0.0045062643 -0.010586147 0.032226752 0.031278756
0.06549533 -0.02814495 -0.003838945 0.12729171 -0.020698896 0.011557559 -0.025900668 0.039107595
0.048967406 0.04376355 0.0035309303 -0.029455356 0.040823944 0.03491213 0.048729412 -0.042711034
0.062442243 0.024816206 0.037315268 0.08359336 0.001610587 -0.050482064 0.02036211 0.082808234
0.057668824 0.022855962 0.06845332 -0.028186623 0.024649322 -0.037416894 0.06416931 -0.02596413
0.12336639 -0.008310561 -0.040593155 -0.07220705 -0.06786502 0.01911796 0.01766878 -0.06426536
-0.0029899795 0.096061155 0.011193654 -0.04852293 -0.16507411 0.05793945 0.022496037 -0.04530667
-0.05025456 0.1149356 -0.083911195 -0.048413515 -0.1085275 -0.012314283 -0.113567166 -0.041172586
0.03168342 0.21308815 0.05219522 0.045001373 0.01270969 -0.118449405 0.031076375 0.06161574
0.08005243 -0.034725808 0.08601844 0.06417003 0.16296151 0.051246386 0.010284501 0.06656573
0.08316597 -0.002438655 0.033073206 0.011199866 0.080838 0.015525328 -0.026076779 -0.0140423635
0.0143046295 0.023556832 -0.04087508 0.04008618 0.015261279 -0.10406859 -0.041558348 0.060876004
-0.005701768 0.06716435 0.01658974 -0.03640545 -0.012589498 -0.064777344 -0.029437881 -0.016302984
0.053637948 0.06144527 -0.08744172 0.008620093 0.023301303 0.02070877 -0.13377258 -0.013521363
0.0017067448 0.04519383 -0.029627562 0.055692647 0.044388432 0.008684208 -0.03205155 0.074508175
0.04734408 -0.1215379 0.020285489 -0.015106252 0.017693257 0.002474658 -0.039118618 -0.028650718
-0.02355262 -0.05178415 0.02198135 0.013950602 -0.017086895 0.005263948 -0.010124487 0.09040738
0.011746414 -0.11778781 -0.015235115 0.020581402 0.00038145212 -0.0008322836 -0.015424394 0.05358296
-0.028058967 -0.1252061 -0.015044476 0.04316196 0.07221572 -0.022406831 -0.042802054 -0.0532783
-0.037945386 -0.1206817 0.027762027 -0.005367117 0.07796843 0.00093242264 -0.013711601 -0.0023159436
-0.04328461 -0.12215407 0.0189463 -0.052125737 0.06775225 0.033776715 -0.031351592 0.0038851935
0.05085044 -0.100238465 0.005873367 -0.12670675 -0.011292738 0.0012021228 -0.05347066 -0.16048978
0.03322557 -0.057059962 -0.011911478 -0.12194315 -0.022797752 0.010649385 -0.00835719 -0.05290876
0.017222246 -0.16027154 -0.017465485 -0.097624905 -0.039811913 0.05682897 0.059841476 -0.09004026
0.018763565 -0.02732968 -0.039916523 0.07565422 -0.017464772 -0.10442317 -0.026010273 0.10482099
0.006495614 0.014109742 -0.036571268 0.06797953 0.0029664284 0.053924747 -0.019492585 0.02722534
-0.054372914 -0.064929426 -0.023080237 0.033642624 -0.13348472 0.09443622 -0.00021618286 0.033442922
0.0713086 0.074082986 0.010147295 -0.10306664 -0.03222643 -0.07786319 -0.0039825207 -0.07681289
-0.010629142 0.0309799 0.026232379 0.0006269121 0.026738606 -0.0147475535 0.0055215037 -0.091785386
0.0050748633 -0.023203306 -0.03246861 -0.010367984 0.098450646 0.061227854 -0.027011799 0.012107416
-0.0137650445 0.009096167 0.00065483584 -0.031891298 -0.05738894 0.009398891 0.05863702 0.0010049581
-0.021420466 0.0449177 0.016091952 0.014098775 0.024372 0.04453826 0.003846168 0.016929647

fc1.bias f4 [400]
00000000: 672d a23d c166 cb3c e2e4 e63d 6ac3 0ebe
00000010: 6ad9 163e e47b b83d 48cd 2c3e 9182 d1bd
00000020: 6e2d 0bbe 71de 17bd b8f9 363e f05f 4d3e
00000030: 7229 003b af73 21bd 6f7c 613c b422 57bd
00000040: e397 933c 04d7 503d f662 88bc a29f 0cbe
00000050: 6ce9 98bc 077e 963d faa4 edbd fdca e83d
00000060: 6b6d 573d 456e e63d f64c b83d 06aa 233e
00000070: 9c55 263e e655 abbd dc66 a63d 05e8 d63d
00000080: 7f8b 2fbe 3ac0 0d3d 5c69 2dbe 1d76 a7bd
00000090: f600 a1bd e5cd e6bc 7b57 2ebe c8dc 753d
000000a0: 0c1a 06be c972 c1bd b6a8 e2bd 4597 c2bd
000000b0: 7994 30bd d13c 0d3c fbc8 cbbd e4a2 413d
000000c0: 2640 263c e5ef e53d ff1e df3c 687f 53bd
000000d0: b4f2 053e f10d 75bd 6bf0 f3bd 1460 eebc
000000e0: b85e 5cbd 8981 5a3d ee97 b43d 2c82 df3d
000000f0: a055 8dbd 079f 133e e1e7 babb 8d76 023d
00000100: 9a61 87bd b540 2fbd 3705 78bc 62b5 90bd
00000110: 77f5 a43d 88a4 ae3d e24b 81bd 57a3 8c3d
00000120: 0845 293d 5a8c bdbc a3a3 193b b6bd 3e3d
00000130: 7837 7fbd e9bb 1c3c 7b6d de3c a256 a7bc
00000140: 7ae7 d83d 9f45 04bd 4cff f5bd a73d 3b3e
00000150: cda6 a53d f174 60bd 93d4 be3d 7d1c 30be
00000160: a172 afbd 0f17 c9bd ff16 913c 9681 4e3d
00000170: f6a9 bb3b f105 cebd 339c 83bd 956a f63d
00000180: 7f45 a63d bcf4 8fbc 0dd5 033d d372 223d
00000190: 34fd 18bd 61fd c6bd 0def da3d 07ae 81bd
000001a0: 9211 ebbd fd0f a1bc eee5 373d 9298 1fbe
000001b0: 9101 0e3c 8af0 dbbc c062 28bd ac46 943c
000001c0: 0186 49bc 82f9 26be a5e1 8c3d e43c 483d
000001d0: 8297 d3bd 88c5 213d 22fb f0bd d413 dc3d
000001e0: 9d90 48bd 9467 d83c 12da c43b da25 de3b
000001f0: e3e7 41bc c38b 943d 5f68 f03c acf9 ad3a
00000200: 2d8c b3bc f7d9 603d e8b6 a2bd b1a9 68bc
00000210: d822 e83c 0d3d 0ebe fffc bcbc 5536 12be
00000220: 3728 1ebe 7548 e83d ad06 8a3d 275f 633d
00000230: ffd4 f73d fd69 4bbc ee88 a1bd 4283 543d
00000240: 5ceb 6e3d 3cc6 23bd d60c 343d 35c8 ef3d
00000250: 9c49 a5bc 7b5a b13d 1e8f f33d e90a 22bd
00000260: 39ee b53d 641c 553d 0ec6 763a e8f2 93bd
00000270: 8e97 0a3e 3072 e43d 0d96 a63b 0d0d 413d
00000280: a089 733d 01e8 5f3d c71a a4bd 158a a0bd
00000290: 8692 d7bd e7be e93b 0e65 84bd f216 3e3d
000002a0: 8742 87bd 1500 0bbe 4970 f53d d6ce a4bd
000002b0: 214c c33c 88a5 d53d 6ddc b8bb 7210 ab3d
000002c0: 8c24 9f3b 515a bcbd c0b2 83bd 7af2 bebd
000002d0: ab04 c2bd f191 65bd 92c1 be3d c274 2d3e
000002e0: 0ce9 db3d 53b9 923d cdaa 0abe 0c0d 8ebd
000002f0: 4039 203c bc65 bb3d 6400 97bd 0b03 cc3d
00000300: 7253 b33d c821 1fbd 51b0 16be 4129 233d
00000310: 80b3 553d b0a5 adbd e13e 653d c70d 0cbd
00000320: 7588 1fbe 9565 123d 8fd3 7e3d fbc8 acbb
00000330: 8aee c5bd 3645 b2bd bb2b f63d 1d76 7f3d
00000340: 613c d63d bd79 753d bc9c b13d 3ffa a1bc
00000350: 6f80 cc3d ba06 703d c9e9 9e3d cfdd f33d
00000360: 903b 4ebd 2063 c33d c3a4 abbd 175f a33d
00000370: 5cba 27bd 2cb4 ab3d 21b7 cabd da4d da3c
00000380: 44b9 333e 3fe9 a7bc a3e3 e1bc b0f1 22bd
00000390: 481c 1a3d e88c fc3c 394b 6bbd 8301 76bd
000003a0: 7500 183e f44f 013e d19e e83d 7815 7fbd
000003b0: 2056 bbbd 6d86 0ebe 1d95 20be 3029 04bd
000003c0: 7b07 423d 49c1 bebd 8eeb cfbd 1a49 6a3d
000003d0: d2ae e7bc eeab 09be a414 733d d37c b1bd
000003e0: 0f40 bb3b 438c a13d 9d7b 1bbe f9b3 313d
000003f0: 7859 ffbd 98c6 1b3e 799f ddbd 1bd2 e53d
0.07918816 0.02482927 0.11274125 -0.13941732 0.14731374 0.09008005 0.16875184 -0.10229982
-0.13591549 -0.03707737 0.17868698 0.20056129 0.0019555953 -0.039416965 0.013762577 -0.05252333
0.018016761 0.050986305 -0.01664875 -0.1373277 -0.018665992 0.073482566 -0.116037324 0.11366842
0.052594583 0.11251501 0.08999054 0.15982828 0.16243595 -0.08365993 0.081250876 0.10493473
-0.17143057 0.03460715 -0.16934723 -0.08176825 -0.078615114 -0.02817435 -0.17025559 0.060025007
-0.13095874 -0.09445722 -0.11067335 -0.095015086 -0.043110345 0.008620457 -0.09950443 0.047274485
0.01014713 0.11227397 0.02723646 -0.051635176 0.13080865 -0.05982775 -0.119110905 -0.029098548
-0.05380127 0.05334619 0.08818041 0.109135 -0.06901097 0.14416133 -0.0057039117 0.03185134
-0.06610413 -0.04278632 -0.015137962 -0.07065846 0.08054631 0.085274756 -0.063133016 0.06867092
0.0413256 -0.023138214 0.0023443482 0.04656764 -0.06230876 0.009566286 0.027151814 -0.020427052
0.10591026 -0.03229296 -0.12011585 0.18285237 0.08088455 -0.054799024 0.09317889 -0.17198367
-0.085667856 -0.09818851 0.01771116 0.05041655 0.005727048 -0.10059727 -0.06426277 0.12032048
0.08118724 -0.017572753 0.032185603 0.039660286 -0.03735085 -0.09716297 0.106901266 -0.06332021
-0.11477961 -0.019660944 0.044897012 -0.15585545 0.008667366 -0.026848096 -0.0411098 0.018100105
-0.012300015 -0.16306117 0.06878976 0.048886195 -0.10331632 0.03949502 -0.1176665 0.107459694
-0.04896604 0.026416577 0.0060074413 0.0067794146 -0.011835071 0.0725322 0.029346643 0.001327326
-0.021917427 0.054895367 -0.07945043 -0.014200614 0.028336927 -0.13890477 -0.023069857 -0.14278539
-0.15445028 0.11341945 0.067395546 0.055510666 0.12101173 -0.012415406 -0.078874454 0.05188299
0.058329925 -0.039983973 0.043957554 0.11708108 -0.020176701 0.08659836 0.11892532 -0.039561186
0.08883328 0.05202903 0.0009413668 -0.07224065 0.13534376 0.11154592 0.0050838054 0.047131587
0.05945742 0.054664616 -0.0801292 -0.07838837 -0.10525994 0.007133353 -0.06464587 0.0464086
-0.06604486 -0.1357425 0.11984307 -0.08047263 0.023840012 0.10431963 -0.005641511 0.08352746
0.0048566516 -0.09196914 -0.06430578 -0.093235925 -0.094735466 -0.056047384 0.09314264 0.16939071
0.107378095 0.07164254 -0.13541718 -0.06936082 0.009779274 0.09150264 -0.073731214 0.09961518
0.0875615 -0.038850576 -0.14715697 0.039834265 0.052173138 -0.08478868 0.05596817 -0.034192827
-0.15579398 0.035741407 0.062213477 -0.005272982 -0.09664638 -0.08704607 0.1202006 0.0623685
0.10460735 0.05993055 0.08672473 -0.019772647 0.09985434 0.058600165 0.07759435 0.11907541
-0.050349772 0.09540391 -0.08381035 0.07977121 -0.04094921 0.083839744 -0.0989821 0.02664845
0.17551142 -0.020496963 -0.027574366 -0.039781272 0.037624627 0.030828908 -0.057444785 -0.060060035
0.14843924 0.12628156 0.11358417 -0.062276334 -0.091472864 -0.13918467 -0.15681882 -0.032265842
0.047370415 -0.0931421 -0.1015235 0.05719862 -0.028281603 -0.13444492 0.059345856 -0.086663865
0.0057144235 0.07888081 -0.15183873 0.043384526 -0.12468237 0.15212476 -0.108214326 0.11221715

fc2.weight f4 [300, 400]
00000000: e734 67bd fa91 753c 68ba 5dba 51e1 41bd
00000010: ba9c e33c b04a 4d3d 1b10 693c e70c 9abd
00000020: dd48 673d d358 4a3c 3314 5f3c c6a4 c1bd
00000030: 6e79 39bd 6618 383d 5b56 ecbb 9408 1f3d
00000040: 5a5b c8bd f3a8 bcbc 2a37 1ebd 3378 dbbc
00000050: 862d 853d b75c 7fbd 4088 ff3c 69ee 103d
00000060: 88c0 b13b 542e 70bc a81b 52bd 2efa cf3b
00000070: 00e2 c1bb 334c 123d 6e58 98bb e9f0 3dbd
00000080: ea22 043d e74a bbbd 0e61 793d e844 afbd
00000090: 9fd0 143d 2d70 8bbd aab8 7c3d 9502 a03b
000000a0: 03d8 513d 78cb d1bb a20c 85bd 1464 d83b
000000b0: b3ce 91bc dd76 153d dc07 c03a bc61 bbbc
000000c0: db98 d7bc bb13 c0bc 1848 013d 3751 c7bd
000000d0: 6d1e 6d3d 3511 73bb 9397 493c 107f 09bb
000000e0: 5f7f 573d 4135 033d b483 233d c4bc 09bd
000000f0: d940 6bbd de0e 92bc 1f25 78bd aa21 653c
00000100: 6cb8 30bd 722a 303c 8a3e 4abd 14a6 823d
00000110: 4115 823d f866 543c f6f0 60bd 51cb c6bb
00000120: 4ca6 30bd 01d3 073d c0f4 233d db47 9fbc
00000130: c106 623d 8800 03be 06f6 97bb 6aa5 06be
00000140: f7ec 033e ebcc 0c3d 1449 02be 03d8 17bc
00000150: 1db9 a1bd affa 073c a0a3 2dbd 27ad fabc
00000160: d1cf b63c 10c0 8a3c 7209 be3d 2d63 61bc
00000170: 819c 2abd ece8 de3c b8f3 a2bd eb14 a93d
00000180: a951 40bd 6710 fc3d c01f 283d 68d5 a7bd
00000190: 547f 0e3d ea51 e5bc 1e4c ca3c ce5d 8c3b
000001a0: 021b 013d 56bb 02bd ad83 c3bc addd 633c
000001b0: 6321 0e3e e5b9 f0bd a5b1 4dbb a45f afbb
000001c0: 99d9 fabc e960 353c c499 b1bc 93e2 cd3c
000001d0: 4473 e3bc 0bdc 573c 1975 cf3d 705b b83c
000001e0: 0fc7 79bd ca50 273b 1064 093d 5415 6c3c
000001f0: ff08 92bd 554f 293d e4e3 a2bd 6964 2d3d
00000200: 98bf 993d f4a0 84bd 6856 32bd 477d 40bd
00000210: ed18 913c 7a47 5bbc 0732 493d 5468 46bd
00000220: 4ea6 86bd 8ca9 9e3d 0d70 c1bd 1f67 11be
00000230: 3e88 f13b c230 afbd f77c 02bd febd ddbd
00000240: 45fc f8bb 8feb 913c 4d7c 2f3d 58aa 46bc
00000250: a4a7 ccbc b382 173c fd29 363d b7ea 20bc
00000260: 6521 0dbb b219 9ebc 916c c23c 5f93 e73c
00000270: 6c5e 8ebd e86a 2c3d 7d8b 8b3c b148 3b3d
00000280: c0bd 86bc 8545 afbc 1229 093c 2f99 6ebb
00000290: add5 40bd 5cf6 ba3d 5841 643e 4fa4 36bc
000002a0: 2086 01bc 7cb4 cc3c bbc2 21bd 9748 18be
000002b0: 6541 bc3c 7ac8 673c 6f22 763d 099b 93bc
000002c0: 6c5a 2e3b af5a 64bd 5ac1 09bd cc74 45bd
000002d0: d888 ceba 0bc6 98bd 251a b3bd e10b 0fbe
000002e0: 34b9 1f3d a68a 0abd f896 c3bd 6985 5bbb
000002f0: e77b 313c c41b 733c 64a3 64bd d509 bbbd
00000300: bcc2 aabc 41cb af3b 41db d3bc 7e26 09bc
00000310: 2f4b 483d 25c8 23bd e08c 043e c2fd 133d
00000320: 6f9e 45bc 106e 143d 68ef 143c abac 77bd
00000330: a9ec a53c db9d c83d 7df4 c5bc 766a 6e3d
00000340: 376d 97bc f1c1 41bd 2f48 34bd a092 3ebd
00000350: 35c8 bbbc 4702 8bba 2a25 93bd e0ed 513b
00000360: 7681 5f3d 9137 a93d b54b 6ebc 39bf 2e3d
00000370: 0dfc bb3d e5f1 cd3d 2a68 07bd 2c70 2c3d
00000380: c3a9 9ebd 2e96 82bb 95d7 87bd 4ccf 8d3d
00000390: eb85 513d 527d 323d bd01 a53d 58bc ba3d
000003a0: 23c8 82bd d87c 493c a061 3fbd 2a56 0d3d
000003b0: cdac 09be 95f0 95bc 0964 d23d 997e 843d
000003c0: 0090 b9bd 852d c5bd 55d8 e1bc 360d 74bd
000003d0: 88d3 bd3b 1e3f 793d a150 3fbd 5af2 fe3c
000003e0: 5810 80bd 2ea6 c4bd 8329 4abd 7f04 103d
000003f0: b564 a6bc 3af6 2cbd eb4a e23c 4522 54bd
-0.056446936 0.014988417 -0.00084582577 -0.04733402 0.027784694 0.050120056 0.014225031 -0.07521992
0.056465972 0.012350279 0.013615656 -0.09455256 -0.04528182 0.044945143 -0.007212443 0.03882654
-0.09783049 -0.02302978 -0.038626827 -0.026790714 0.065028235 -0.06234428 0.031192899 0.035383616
0.005424563 -0.014659483 -0.051295906 0.0063469624 -0.005916834 0.0357172 -0.0046492135 -0.046372328
0.03225986 -0.09145146 0.060883574 -0.08558065 0.03633177 -0.06808505 0.061699547 0.0048831203
0.051231395 -0.006402429 -0.0649655 0.006603727 -0.017798757 0.03649031 0.001465078 -0.022873752
-0.026318004 -0.023446908 0.031562895 -0.097322874 0.057890344 -0.0037089114 0.0123042045 -0.0020980276
0.052611705 0.03203321 0.039920524 -0.033627287 -0.05743489 -0.017829355 -0.060582276 0.013985077
-0.04314463 0.010752307 -0.04937605 0.06379333 0.0635171 0.012964003 -0.0549173 -0.0060667177
-0.043127343 0.033160213 0.040028334 -0.019443443 0.055182222 -0.12793171 -0.0046374826 -0.13149038
0.12883364 0.034375113 -0.1272319 -0.00926781 -0.07896636 0.008299514 -0.042392373 -0.030600144
0.022315891 0.016937286 0.09279145 -0.0137565555 -0.04165316 0.027210675 -0.07956642 0.08255943
-0.046952877 0.12307816 0.041045904 -0.08195001 0.0347894 -0.027993161 0.024694499 0.0042836433
0.031519897 -0.03191694 -0.023866499 0.013907832 0.13879924 -0.117542066 -0.0031386402 -0.0053519774
-0.030621337 0.011070468 -0.021679766 0.025132453 -0.027764924 0.013175021 0.101297565 0.022504538
-0.060980853 0.0025530332 0.033542693 0.014409382 -0.07130622 0.041335423 -0.07953623 0.042332087
0.07507247 -0.06476012 -0.043539435 -0.046994474 0.01771208 -0.013383741 0.049119975 -0.04843934
-0.06574689 0.07747182 -0.094452 -0.14199494 0.0073709777 -0.08554222 -0.031857457 -0.10827254
-0.0075984322 0.017812518 0.04284315 -0.012125574 -0.024982281 0.00924747 0.044473637 -0.009821585
-0.0021534797 -0.019299362 0.02373341 0.028268514 -0.06951603 0.04209414 0.017034287 0.04572362
-0.016447902 -0.021395454 0.008371608 -0.0036407223 -0.047078777 0.091290206 0.22290552 -0.011147573
-0.007905513 0.024988405 -0.03949235 -0.14871441 0.022980401 0.014146918 0.060091432 -0.018018262
0.0026604189 -0.055750545 -0.03363166 -0.04820709 -0.0015757335 -0.07459649 -0.08745221 -0.13969375
0.038994983 -0.03382363 -0.095502794 -0.0033496267 0.010832763 0.014838163 -0.055819884 -0.09132735
-0.02084481 0.005364806 -0.025861384 -0.008370994 0.048899826 -0.039985795 0.12944365 0.036130674
-0.012061699 0.036237776 0.009090282 -0.060467403 0.02025445 0.097957335 -0.024164433 0.058206998
-0.018484695 -0.047304098 -0.044014152 -0.04652655 -0.022922615 -0.0010605537 -0.07184823 0.0032032654
0.054566823 0.082625516 -0.014544417 0.042662833 0.09178934 0.10055903 -0.033058323 0.042099163
-0.07747223 -0.003985188 -0.06632916 0.06924304 0.051153105 0.043576546 0.08056972 0.09117955
-0.06385829 0.0122978315 -0.04672396 0.034506 -0.13444825 -0.018303195 0.102729864 0.06469459
-0.09060669 -0.09627823 -0.027568975 -0.05958291 0.0057930388 0.06085121 -0.046707753 0.031121422
-0.06253117 -0.09602009 -0.049355995 0.035160538 -0.020311693 -0.042227007 0.027623614 -0.051790494

fc2.bias f4 [300]
00000000: 956b 3e3b 1ed1 453d 0b28 af3c e90f 5a3b
00000010: 02d2 c93b c84b 813d a02b 56bb cae1 2ebd
00000020: c1ce 34bd 1215 aebb 75e7 dcbc fc44 0c3d
00000030: 031f ba3c 1649 b5bc 8e1c 0dbd 8e10 70bc
00000040: f31d 0dbd ef39 1c3d 4127 25bd d59b 07bd
00000050: d00c bcbb 07c3 01bc d7bd e3bc 0a42 7dbc
00000060: dd36 6b3b 68fc 113d 765f 5bbc 673a b4bc
00000070: f3be 23bd 658f 8dbd c8fc fa3c 94c9 80bd
00000080: 6402 993d 8b16 c5bd 7f00 bbbc fa81 68b9
00000090: d25c 4ebb 0f3e 593b 916d a73c 6ee4 0e3d
000000a0: d4fc 63bc 2ed8 653d 9391 1bbd 2102 583c
000000b0: 85b5 98bc 1f69 b43a 7268 963b f534 4fbc
000000c0: fdb4 f33c 110d 7d3d 531d 683b 1b04 87bd
000000d0: edd0 c4bc 81e7 553c d682 1fbd 880c 20bd
000000e0: 7ebd 63bd 0b96 7dbb 8d6c 4c3b d6e6 8f3d
000000f0: 8baf e73c c1ca 143d eab4 1bbd 26ad b7bd
00000100: 4141 2abd aeac 6fbc d1f8 8b3d 6e3a 83bd
00000110: 783f f93c 1aa4 833c 7fc2 693d ab3b 75bc
00000120: 3933 ffbc 6f0f b43c b742 963c 9ff4 5e3a
00000130: ed7b bf3c 2362 633d 6f99 6bbd 3f8e 06bc
00000140: 6906 133d 73bc b53b 5972 153d 0d21 15bd
00000150: fe44 80bc 6ced 01bd 99ff aabb 6d00 da3c
00000160: f903 d13c 687c ff3b 4a40 55bd 9434 bebc
00000170: e973 d43b f81f 053c 05cd 65b9 415b b9bc
00000180: c682 49bd 7068 8a3c e11a 3cbd 8837 093d
00000190: 8143 f13c b23b af3c 692e 1cbc 2492 bbbc
000001a0: c73b 353d 07e7 7abd b66c 2abd 9379 183d
000001b0: 8e48 34bd 4127 65bd 81ab 3e3d 97e6 b23c
000001c0: 2abf e83c fe87 8fbc 3286 e03a f051 673c
000001d0: c6f4 133d cc0e bfbb 472c 9ebc 08c6 04bd
000001e0: 1db6 7dbc a49d 6bbc e287 46bc 5339 a0bc
000001f0: 9e33 9cbd 95fa e8bc 52ac 843d f986 cabc
00000200: 6355 2cbd 29e3 afbc 2e85 823c 59da 273c
00000210: cbe8 69bc 7eb8 2c3c 6b24 a5bd b368 5ebd
00000220: 5c94 3cbd e83f 8abc 2406 17bc 1630 edbc
00000230: 964d ebba 0f0c 4a3b c4f5 c53c e7dd a33c
00000240: c315 1cbd 2dd0 833a 4479 d6bc ce20 a13c
00000250: 0b12 25bc 2e77 1abc 2ecf f8bc e66b 453d
00000260: d73d 8a3c 8553 a5bd 1ffb 53bd df37 4cbd
00000270: d6ed 843d 18d2 6bbd 998d e23c 1d93 06bd
00000280: 0f7d 2b3d d750 f2bc 706c 1c3d 8895 08bd
00000290: 11ae cfbc a1b7 f7bc b79c 5c3d cc44 b0bc
000002a0: 461e 9abc 949e 7dbc 159e 17bd 8f87 113d
000002b0: 356c 13bd 18d8 c43c 76c1 05bd 8e2c 2bbd
000002c0: b8bc b3bb c5e5 fb3a 6b61 2bbc d15b bfbc
000002d0: 399e 68bc 0503 1bbd eebb 2abd c988 1ebd
000002e0: ebc3 0e3c 22f5 423c 2807 8e3c 3ef9 133d
000002f0: 1b98 57bd 921f 383b d058 313d c46d 4fbd
00000300: 2b4f 3abd f9b0 1ebd d19b f5bc 563f adbd
00000310: 5456 80bd 03db bcbc 31c5 363d c7fd eebc
00000320: 6d38 37bd e5e5 5f3d 640b 5dbd 8ffa 1dbd
00000330: a5e4 1ebc c902 6e3c 63f1 1f3c ad2d 993d
00000340: 7df7 68bc 07f9 bb3c cdb7 be3b e6be 24bd
00000350: 3265 233d cdd2 48bd 0f30 aebb 8c8d 0cbd
00000360: 05b1 08bd 1084 ec3c 5a40 873c 0c12 dfbc
00000370: e032 b5bc d54a c33a 96bd 1e3b 3c6e 5dbc
00000380: dd87 a9bd 5ab6 c2bc 03d4 e5bc 0621 523b
00000390: 78fd acbd 3386 82bd b166 ef3c d4f7 89bd
000003a0: 4a94 c4bc a8ed b8bc 8940 61bc e022 e1bc
000003b0: 9a1d be39 34cd f43b 8f6d 1dbd 70df ae3b
000003c0: 53be 28bd 5948 45bb b5de 35bb 3b07 c4bc
000003d0: 3486 88bc 2b45 ed3b 3b3f fd3c 6d26 e23b
000003e0: b933 5f3d 9d36 dcbc 7793 e8bc 883c 33bd
000003f0: aae8 56bd 3743 fcbc f097 adbc 488f b53c
0.0029055823 0.048295133 0.021381399 0.0033273643 0.006159068 0.06313282 -0.003267981 -0.042695798
-0.04414249 -0.0053125704 -0.026965836 0.034245476 0.022719866 -0.022129577 -0.03445106 -0.014652384
-0.03445239 0.038141187 -0.04032064 -0.033107597 -0.005738832 -0.007920033 -0.027800484 -0.0154576395
0.0035890855 0.035641104 -0.013389459 -0.022000505 -0.039977025 -0.06912116 0.030638114 -0.06288448
0.07471159 -0.0962344 -0.022827385 -0.00022173664 -0.003148843 0.0033148562 0.020437988 0.034885816
-0.013915259 0.05611437 -0.037980627 0.013184101 -0.018641243 0.0013764239 0.0045900876 -0.012646903
0.029749388 0.06178004 0.003541787 -0.0659258 -0.024025405 0.013055683 -0.038943134 -0.03907445
-0.055600636 -0.003869417 0.003119263 0.0702645 0.028281948 0.036326174 -0.03801433 -0.08968572
-0.041566137 -0.014628572 0.06834567 -0.06407629 0.030425772 0.01606946 0.05707025 -0.014967839
-0.031152355 0.021980016 0.018342359 0.00085050793 0.023374522 0.055513512 -0.057519373 -0.008212625
0.035894785 0.0055461465 0.036486004 -0.036408473 -0.015657898 -0.031720564 -0.005218458 0.026611531
0.02551459 0.007796813 -0.052063264 -0.02321843 0.006483544 0.008125298 -0.00021915518 -0.022626521
-0.04919698 0.016895503 -0.04592407 0.033500224 0.029451134 0.02139077 -0.009532549 -0.022896834
0.04424646 -0.06125548 -0.04160758 0.037225317 -0.044014506 -0.05594564 0.046550278 0.02183847
0.028411467 -0.0175209 0.0017129837 0.0141186565 0.036122106 -0.0058306213 -0.019308222 -0.03241542
-0.015485314 -0.014380846 -0.012117358 -0.019558584 -0.07627033 -0.0284398 0.0647818 -0.024722563
-0.04207362 -0.021470623 0.015932646 0.010244929 -0.014276694 0.010542033 -0.08063587 -0.054299068
-0.046039924 -0.016876176 -0.009217773 -0.028953593 -0.00179522 0.0030829941 0.024165042 0.020003272
-0.03810669 0.0010056548 -0.02618087 0.019668963 -0.010075103 -0.009427829 -0.030372228 0.048198603
0.01687519 -0.08072571 -0.05175316 -0.04985797 0.06490676 -0.057573408 0.02765541 -0.032855142
0.041867312 -0.029579563 0.03818935 -0.03334573 -0.025351556 -0.030238928 0.053860392 -0.02151718
-0.018813264 -0.0154797025 -0.037015993 0.03552967 -0.035991866 0.024028823 -0.0326552 -0.041790538
-0.0054851435 0.0019218257 -0.010460238 -0.023359211 -0.0141978795 -0.037844677 -0.04168313 -0.038704667
0.008713703 0.0118992645 0.017337397 0.036126368 -0.052635293 0.002809499 0.04329759 -0.05064179
-0.045485657 -0.038742993 -0.029981526 -0.08459346 -0.06266466 -0.023053652 0.04462165 -0.029173745
-0.044731546 0.054662604 -0.05396594 -0.03856903 -0.009698068 0.014527031 0.009762141 0.07479415
-0.014219162 0.022945894 0.0058202506 -0.040221117 0.03989143 -0.04902916 -0.0053157876 -0.034314677
-0.033371944 0.028871566 0.016510177 -0.027230285 -0.022118986 0.0014899621 0.0024221889 -0.013515051
-0.08277867 -0.023768593 -0.028055197 0.003206314 -0.08446783 -0.06373253 0.029223772 -0.067367226
-0.023996491 -0.02257426 -0.013748297 -0.02748245 0.0003626168 0.007470751 -0.03843456 0.0053366944
-0.041197132 -0.0030102937 -0.0027751152 -0.023929229 -0.016665556 0.0072409115 0.03091394 0.0069015534
0.054492686 -0.02688151 -0.02839063 -0.0437589 -0.05246798 -0.03079377 -0.021190614 0.022163048

fc3.weight f4 [2, 300]
00000000: a7ac 40bd a2f4 483e 5314 24be a034 aebd
00000010: 9666 86bd fb7d db3b 9c8f c83c 7422 a93d
00000020: f347 0bbe de74 99bb 3239 7f3c 70ee 56bd
00000030: 876d ebbc 7fe9 40be a08d 3a3d 9c56 e9bb
00000040: ec79 d33c 4204 8b3c d47e 053d 69cb 00bd
00000050: 3336 ba3d a00a c7bd be23 0abe 1ba2 21bb
00000060: d5b9 a13d 0cb7 bf3d 7d30 44bd 5108 8dbc
00000070: 0d97 81bd cff2 9ebd 929f 743d 381a 38bd
00000080: c006 11bc 97fa ffbd fd92 c03b f821 cab9
00000090: 960f 26be 3b23 ac3c 0c48 9f3c 481f c03c
000000a0: 9623 8d3d 2efd 2a3e 6681 bd3b b339 2dbd
000000b0: 0ab2 18bd f9cd 853d 2cd3 1bbe 607b b23d
000000c0: 6947 c33d 16bd 923d dc38 bebc d249 023d
000000d0: 98a4 c0bc 8618 2e3d 886a 5dba 28ae 4ebd
000000e0: 4caa b43c b527 b6bc 0526 4b3d fb10 573d
000000f0: e4a3 30be f0d8 a23d 3d2c a1bd 451a 0fbe
00000100: ecbe a1bc 3293 cb3d 48fb 4e3c 987d 3e3e
00000110: de27 02be c09b 07bc 578b 3d3d 7680 40bd
00000120: 12af 7fbc 1035 883d 38fb 643d 3895 68bd
00000130: d7b7 a53d 8d3c 4f3d 75f6 bbbc d30a 313d
00000140: ef49 a63c bc90 4c3e 9fe7 49bc c730 01bc
00000150: fbcc 4bbd b938 733e a6d8 803c d4a2 673d
00000160: ee0c b13d df62 cc3c 3a09 903d 500e 6dbd
00000170: c94e 823d cb21 a539 ee6d 893d 9556 893d
00000180: 398c 313d 4cae 9cbc 347f 5abd 5898 933d
00000190: 0ad7 c13c 6952 e33d 6c6f 55be 93be 6bbe
000001a0: 1c08 02be 5ac9 59be ec40 4cbd f8aa fb3d
000001b0: 3777 debd 58ba 4bbd c7ba 3f3e 42c7 033c
000001c0: 47d6 da3d 4f70 1fbb 40f8 243d 581b cebd
000001d0: 02a1 94bc 3ddf 73be 9fd7 4ebd 5b62 8fbb
000001e0: 0554 50bd 36eb 30bb 3fb7 a6bd 5220 21bd
000001f0: 1d52 8bbd 95ad dc3d 12bc 223d 095e abbd
00000200: e40a 953b 882a 8739 aa28 023d 765b ea3a
00000210: cd03 85be ef22 063d 777b 0d3e 1445 8ebe
00000220: ac2f ecbd 5ba1 b73d 0fe7 113d 8842 47bd
00000230: e79d 713c 2522 9dbd 6fed d1bd 28c0 8f3d
00000240: f88c 1fbe 3236 45be 55cf a3bc 596d 94bb
00000250: 7dc9 073e ed83 0ebb c4c2 abbc c495 ce3d
00000260: 7354 62ba c4d0 b6bd feb3 d8bd 1fbe 9cbc
00000270: e509 6f3c 3b00 953d cc0b c93b 0be7 3ebd
00000280: 64a5 c63c 1cf0 bcbc 5db7 ea3d c4d7 f0bd
00000290: 07fa b23d 8748 95bd 8975 a23d c4a9 9bbd
000002a0: cdf2 0cbd 4383 0fbd 6c4d 08be 3e03 8c3d
000002b0: c9ea 8dbc 2ed3 4dbe 2227 463b 3ef8 a0bd
000002c0: 57e7 333e 9b92 30be 93bc f43d 33c7 1f3d
000002d0: 4b16 bcbb 945a 0bbd df28 11be 5f23 a6bb
000002e0: 21d5 aabd a5d7 3b3c c195 ec3d 1297 333d
000002f0: 67b3 0ebd b8dc d13c 30a6 e43c ec76 aebd
00000300: b796 25be 7eea 32be ee6d 2bbb 8bcb d63d
00000310: 2b8f 0abe d0b7 06be a7e8 9b3c a9df 213d
00000320: a30d 27be b8f2 5dbe 7753 41bd 79de 53bd
00000330: 5d15 003e 25a4 09bd 03ce 1dbd e400 093e
00000340: f0b8 f9bd ff96 b63b 47aa 763c baca 933d
00000350: 84c9 a13d 8d17 00bc 705d ecbc 8c29 fd3d
00000360: e53c 32be d30f 51bc e9fb 463d 2c7c f0bd
00000370: 98fb ecbd 4e0b 12be 4ed1 b9bd 4c0b 89bd
00000380: 9a8b 06bd e346 b53a 58f5 133e a326 8e3d
00000390: 14e8 29be e90f 3bbe fd46 a0bb 93a8 7e3d
000003a0: 13a4 67be 31d5 77bd 10c0 ec3d e75e 863b
000003b0: 6f83 3e3d e418 07bc ff1e 183e 2423 4bbd
000003c0: 5677 6ebc 4db5 15be 2f18 243c 4766 fdbc
000003d0: e8ed d93d 8307 19bd 7aa7 0ebd 5cd0 d83b
000003e0: 67b7 f43b f31d a93d ca5b 273d d64c 0cbe
000003f0: bbbd 913d 0962 1ebe cd9c 92ba ff7f 993c
-0.047039654 0.1962457 -0.16023378 -0.08506131 -0.065625355 0.0066983677 0.02448254 0.082585245
-0.13601665 -0.004683121 0.015577601 -0.052473485 -0.02873875 -0.18839072 0.04554522 -0.0071209203
0.025814973 0.016969804 0.032591656 -0.031443987 0.09092369 -0.097188234 -0.13490197 -0.0024663273
0.07896773 0.09361085 -0.047897805 -0.01721588 -0.06327639 -0.07761156 0.05972249 -0.04494688
-0.008851707 -0.12498968 0.0058768974 -0.0003855375 -0.16216883 0.021012893 0.019443534 0.023452416
0.06891553 0.16698143 0.0057832478 -0.042291354 -0.037279166 0.06533427 -0.15217274 0.08714938
0.09535105 0.071649715 -0.023220472 0.03180868 -0.023515984 0.042503856 -0.00084463554 -0.050459057
0.02205386 -0.02223573 0.049596805 0.05250643 -0.1725002 0.07951534 -0.07869766 -0.13974865
-0.019744359 0.09940185 0.012633152 0.18602598 -0.1271052 -0.00827688 0.046275463 -0.04699751
-0.015605705 0.06650746 0.055903643 -0.05678293 0.08091705 0.050594855 -0.022944668 0.043223213
0.020298926 0.19977087 -0.012323289 -0.007885165 -0.04975603 0.23752107 0.015728306 0.05655177
0.08645044 0.02494949 0.0703301 -0.057874978 0.06362683 0.0003149643 0.067104205 0.06705967
0.043346617 -0.01912608 -0.053343967 0.07206792 0.023662109 0.11099703 -0.20843285 -0.23021917
-0.12698406 -0.21268216 -0.0498666 0.12288469 -0.10862582 -0.049738258 0.18723594 0.008043112
0.106854014 -0.0024328416 0.040275812 -0.10063809 -0.01814318 -0.23815627 -0.0504986 -0.0043757386
-0.050861377 -0.0026995665 -0.0814042 -0.039337464 -0.06802771 0.10775296 0.03973014 -0.08367545
0.0045484174 0.00025780895 0.03177706 0.0017880041 -0.25979462 0.03274816 0.1381663 -0.27787077
-0.1153253 0.08966323 0.035620745 -0.048647434 0.0147471195 -0.07672528 -0.10250365 0.07019073
-0.15581119 -0.19258955 -0.019996325 -0.004529637 0.13260455 -0.0021746114 -0.020966895 0.10087159
-0.00086338 -0.08926538 -0.10581206 -0.019133626 0.014589761 0.072754346 0.0061354395 -0.04660706
0.024248786 -0.023063712 0.11460755 -0.11759904 0.08739095 -0.07289224 0.07932574 -0.076007396
-0.03441124 -0.03503729 -0.13310784 0.06836556 -0.017323868 -0.2010009 0.0030235727 -0.078598484
0.17568718 -0.17243426 0.1195003 0.03900833 -0.005739962 -0.03402193 -0.14175747 -0.0050701345
-0.08341432 0.011464988 0.11552001 0.043845244 -0.03483906 0.025617942 0.027911276 -0.08518776
-0.16170774 -0.17472264 -0.0026158052 0.104880415 -0.13531177 -0.13156056 0.019031836 0.03951994
-0.16313796 -0.21674621 -0.04719874 -0.05172584 0.1250815 -0.033603806 -0.038526546 0.13379246
-0.12193477 0.0055721994 0.015055246 0.072164014 0.07899764 -0.007818115 -0.028853148 0.1236144
-0.17406042 -0.01276012 0.048580084 -0.11742434 -0.11571425 -0.14262125 -0.09073125 -0.06691608
-0.03284798 0.001383033 0.1444906 0.06940963 -0.16592437 -0.18267788 -0.004891275 0.062172484
-0.22621183 -0.06050605 0.115600705 0.0041006687 0.046512064 -0.0082456805 0.14855574 -0.04959406
-0.014554819 -0.14619942 0.010015531 -0.030932559 0.1064108 -0.03736068 -0.034827687 0.0066166352
0.0074681523 0.082576655 0.04085902 -0.13701186 0.07116266 -0.15467085 -0.0011185646 0.018737791

fc3.bias f4 [2]
00000000: 1288 c03c 95c4 0abd
0.023502383 -0.03387888
